<?xml version="1.0" ?>
<net name="person-vehicle-bike-detection-2004" version="10">
	<layers>
		<layer id="0" name="image" type="Parameter" version="opset1">
			<data element_type="f16" shape="1,3,256,448"/>
			<output>
				<port id="0" precision="FP16">
					<dim>1</dim>
					<dim>3</dim>
					<dim>256</dim>
					<dim>448</dim>
				</port>
			</output>
		</layer>
		<layer id="1" name="1065710661_const" type="Const" version="opset1">
			<data element_type="f16" offset="0" shape="" size="2"/>
			<output>
				<port id="0" precision="FP16"/>
			</output>
		</layer>
		<layer id="2" name="1065810662_const" type="Const" version="opset1">
			<data element_type="f16" offset="2" shape="" size="2"/>
			<output>
				<port id="0" precision="FP16"/>
			</output>
		</layer>
		<layer id="3" name="1065910663_const" type="Const" version="opset1">
			<data element_type="f16" offset="0" shape="" size="2"/>
			<output>
				<port id="0" precision="FP16"/>
			</output>
		</layer>
		<layer id="4" name="1066010664_const" type="Const" version="opset1">
			<data element_type="f16" offset="2" shape="" size="2"/>
			<output>
				<port id="0" precision="FP16"/>
			</output>
		</layer>
		<layer id="5" name="Conv_6/fq_input_0" type="FakeQuantize" version="opset1">
			<data auto_broadcast="numpy" levels="256"/>
			<input>
				<port id="0">
					<dim>1</dim>
					<dim>3</dim>
					<dim>256</dim>
					<dim>448</dim>
				</port>
				<port id="1"/>
				<port id="2"/>
				<port id="3"/>
				<port id="4"/>
			</input>
			<output>
				<port id="5" precision="FP16">
					<dim>1</dim>
					<dim>3</dim>
					<dim>256</dim>
					<dim>448</dim>
				</port>
			</output>
		</layer>
		<layer id="6" name="image/reverse_input_channels/Concat96514_const303720456/quantized23427_const" type="Const" version="opset1">
			<data element_type="i8" offset="4" shape="32,3,3,3" size="864"/>
			<output>
				<port id="0" precision="I8">
					<dim>32</dim>
					<dim>3</dim>
					<dim>3</dim>
					<dim>3</dim>
				</port>
			</output>
		</layer>
		<layer id="7" name="image/reverse_input_channels/Concat96514_const303720456/quantized/to_f16" type="Convert" version="opset1">
			<data destination_type="f16"/>
			<input>
				<port id="0">
					<dim>32</dim>
					<dim>3</dim>
					<dim>3</dim>
					<dim>3</dim>
				</port>
			</input>
			<output>
				<port id="1" precision="FP16">
					<dim>32</dim>
					<dim>3</dim>
					<dim>3</dim>
					<dim>3</dim>
				</port>
			</output>
		</layer>
		<layer id="8" name="Conv_6/fq_weights_1/zero_point23440_const" type="Const" version="opset1">
			<data element_type="f16" offset="868" shape="32,1,1,1" size="64"/>
			<output>
				<port id="0" precision="FP16">
					<dim>32</dim>
					<dim>1</dim>
					<dim>1</dim>
					<dim>1</dim>
				</port>
			</output>
		</layer>
		<layer id="9" name="Conv_6/fq_weights_1/minus_zp" type="Subtract" version="opset1">
			<data auto_broadcast="numpy"/>
			<input>
				<port id="0">
					<dim>32</dim>
					<dim>3</dim>
					<dim>3</dim>
					<dim>3</dim>
				</port>
				<port id="1">
					<dim>32</dim>
					<dim>1</dim>
					<dim>1</dim>
					<dim>1</dim>
				</port>
			</input>
			<output>
				<port id="2" precision="FP16">
					<dim>32</dim>
					<dim>3</dim>
					<dim>3</dim>
					<dim>3</dim>
				</port>
			</output>
		</layer>
		<layer id="10" name="Conv_6/fq_weights_1/scale23435_const" type="Const" version="opset1">
			<data element_type="f16" offset="932" shape="32,1,1,1" size="64"/>
			<output>
				<port id="0" precision="FP16">
					<dim>32</dim>
					<dim>1</dim>
					<dim>1</dim>
					<dim>1</dim>
				</port>
			</output>
		</layer>
		<layer id="11" name="Conv_6/fq_weights_1/mulpiply_by_scale" type="Multiply" version="opset1">
			<data auto_broadcast="numpy"/>
			<input>
				<port id="0">
					<dim>32</dim>
					<dim>3</dim>
					<dim>3</dim>
					<dim>3</dim>
				</port>
				<port id="1">
					<dim>32</dim>
					<dim>1</dim>
					<dim>1</dim>
					<dim>1</dim>
				</port>
			</input>
			<output>
				<port id="2" precision="FP16">
					<dim>32</dim>
					<dim>3</dim>
					<dim>3</dim>
					<dim>3</dim>
				</port>
			</output>
		</layer>
		<layer id="12" name="Conv_6" type="Convolution" version="opset1">
			<data auto_pad="explicit" dilations="1,1" pads_begin="1,1" pads_end="1,1" strides="2,2"/>
			<input>
				<port id="0">
					<dim>1</dim>
					<dim>3</dim>
					<dim>256</dim>
					<dim>448</dim>
				</port>
				<port id="1">
					<dim>32</dim>
					<dim>3</dim>
					<dim>3</dim>
					<dim>3</dim>
				</port>
			</input>
			<output>
				<port id="2" precision="FP16">
					<dim>1</dim>
					<dim>32</dim>
					<dim>128</dim>
					<dim>224</dim>
				</port>
			</output>
		</layer>
		<layer id="13" name="data_add_4705748846/EltwiseUnsqueeze49536_const3039_const" type="Const" version="opset1">
			<data element_type="f16" offset="996" shape="1,32,1,1" size="64"/>
			<output>
				<port id="0" precision="FP16">
					<dim>1</dim>
					<dim>32</dim>
					<dim>1</dim>
					<dim>1</dim>
				</port>
			</output>
		</layer>
		<layer id="14" name="BatchNormalization_7/variance/Fused_Add_" type="Add" version="opset1">
			<data auto_broadcast="numpy"/>
			<input>
				<port id="0">
					<dim>1</dim>
					<dim>32</dim>
					<dim>128</dim>
					<dim>224</dim>
				</port>
				<port id="1">
					<dim>1</dim>
					<dim>32</dim>
					<dim>1</dim>
					<dim>1</dim>
				</port>
			</input>
			<output>
				<port id="2" names="371" precision="FP16">
					<dim>1</dim>
					<dim>32</dim>
					<dim>128</dim>
					<dim>224</dim>
				</port>
			</output>
		</layer>
		<layer id="15" name="Clip_8" type="Clamp" version="opset1">
			<data max="6.0" min="0.0"/>
			<input>
				<port id="0">
					<dim>1</dim>
					<dim>32</dim>
					<dim>128</dim>
					<dim>224</dim>
				</port>
			</input>
			<output>
				<port id="1" names="372" precision="FP16">
					<dim>1</dim>
					<dim>32</dim>
					<dim>128</dim>
					<dim>224</dim>
				</port>
			</output>
		</layer>
		<layer id="16" name="1283712841_const" type="Const" version="opset1">
			<data element_type="f16" offset="0" shape="" size="2"/>
			<output>
				<port id="0" precision="FP16"/>
			</output>
		</layer>
		<layer id="17" name="1283812842_const" type="Const" version="opset1">
			<data element_type="f16" offset="1060" shape="" size="2"/>
			<output>
				<port id="0" precision="FP16"/>
			</output>
		</layer>
		<layer id="18" name="1283912843_const" type="Const" version="opset1">
			<data element_type="f16" offset="0" shape="" size="2"/>
			<output>
				<port id="0" precision="FP16"/>
			</output>
		</layer>
		<layer id="19" name="1284012844_const" type="Const" version="opset1">
			<data element_type="f16" offset="1060" shape="" size="2"/>
			<output>
				<port id="0" precision="FP16"/>
			</output>
		</layer>
		<layer id="20" name="Conv_9/fq_input_0" type="FakeQuantize" version="opset1">
			<data auto_broadcast="numpy" levels="256"/>
			<input>
				<port id="0">
					<dim>1</dim>
					<dim>32</dim>
					<dim>128</dim>
					<dim>224</dim>
				</port>
				<port id="1"/>
				<port id="2"/>
				<port id="3"/>
				<port id="4"/>
			</input>
			<output>
				<port id="5" precision="FP16">
					<dim>1</dim>
					<dim>32</dim>
					<dim>128</dim>
					<dim>224</dim>
				</port>
			</output>
		</layer>
		<layer id="21" name="BatchNormalization_10/mean/Fused_Mul_5145351455_const304220458/quantized24003_const" type="Const" version="opset1">
			<data element_type="i8" offset="1062" shape="32,32,1,1" size="1024"/>
			<output>
				<port id="0" precision="I8">
					<dim>32</dim>
					<dim>32</dim>
					<dim>1</dim>
					<dim>1</dim>
				</port>
			</output>
		</layer>
		<layer id="22" name="BatchNormalization_10/mean/Fused_Mul_5145351455_const304220458/quantized/to_f16" type="Convert" version="opset1">
			<data destination_type="f16"/>
			<input>
				<port id="0">
					<dim>32</dim>
					<dim>32</dim>
					<dim>1</dim>
					<dim>1</dim>
				</port>
			</input>
			<output>
				<port id="1" precision="FP16">
					<dim>32</dim>
					<dim>32</dim>
					<dim>1</dim>
					<dim>1</dim>
				</port>
			</output>
		</layer>
		<layer id="23" name="Conv_9/fq_weights_1/zero_point24016_const" type="Const" version="opset1">
			<data element_type="f16" offset="2086" shape="32,1,1,1" size="64"/>
			<output>
				<port id="0" precision="FP16">
					<dim>32</dim>
					<dim>1</dim>
					<dim>1</dim>
					<dim>1</dim>
				</port>
			</output>
		</layer>
		<layer id="24" name="Conv_9/fq_weights_1/minus_zp" type="Subtract" version="opset1">
			<data auto_broadcast="numpy"/>
			<input>
				<port id="0">
					<dim>32</dim>
					<dim>32</dim>
					<dim>1</dim>
					<dim>1</dim>
				</port>
				<port id="1">
					<dim>32</dim>
					<dim>1</dim>
					<dim>1</dim>
					<dim>1</dim>
				</port>
			</input>
			<output>
				<port id="2" precision="FP16">
					<dim>32</dim>
					<dim>32</dim>
					<dim>1</dim>
					<dim>1</dim>
				</port>
			</output>
		</layer>
		<layer id="25" name="Conv_9/fq_weights_1/scale24011_const" type="Const" version="opset1">
			<data element_type="f16" offset="2150" shape="32,1,1,1" size="64"/>
			<output>
				<port id="0" precision="FP16">
					<dim>32</dim>
					<dim>1</dim>
					<dim>1</dim>
					<dim>1</dim>
				</port>
			</output>
		</layer>
		<layer id="26" name="Conv_9/fq_weights_1/mulpiply_by_scale" type="Multiply" version="opset1">
			<data auto_broadcast="numpy"/>
			<input>
				<port id="0">
					<dim>32</dim>
					<dim>32</dim>
					<dim>1</dim>
					<dim>1</dim>
				</port>
				<port id="1">
					<dim>32</dim>
					<dim>1</dim>
					<dim>1</dim>
					<dim>1</dim>
				</port>
			</input>
			<output>
				<port id="2" precision="FP16">
					<dim>32</dim>
					<dim>32</dim>
					<dim>1</dim>
					<dim>1</dim>
				</port>
			</output>
		</layer>
		<layer id="27" name="Conv_9" type="Convolution" version="opset1">
			<data auto_pad="explicit" dilations="1,1" pads_begin="0,0" pads_end="0,0" strides="1,1"/>
			<input>
				<port id="0">
					<dim>1</dim>
					<dim>32</dim>
					<dim>128</dim>
					<dim>224</dim>
				</port>
				<port id="1">
					<dim>32</dim>
					<dim>32</dim>
					<dim>1</dim>
					<dim>1</dim>
				</port>
			</input>
			<output>
				<port id="2" precision="FP16">
					<dim>1</dim>
					<dim>32</dim>
					<dim>128</dim>
					<dim>224</dim>
				</port>
			</output>
		</layer>
		<layer id="28" name="data_add_470604706548848/EltwiseUnsqueeze49544_const3044_const" type="Const" version="opset1">
			<data element_type="f16" offset="2214" shape="1,32,1,1" size="64"/>
			<output>
				<port id="0" precision="FP16">
					<dim>1</dim>
					<dim>32</dim>
					<dim>1</dim>
					<dim>1</dim>
				</port>
			</output>
		</layer>
		<layer id="29" name="BatchNormalization_10/variance/Fused_Add_" type="Add" version="opset1">
			<data auto_broadcast="numpy"/>
			<input>
				<port id="0">
					<dim>1</dim>
					<dim>32</dim>
					<dim>128</dim>
					<dim>224</dim>
				</port>
				<port id="1">
					<dim>1</dim>
					<dim>32</dim>
					<dim>1</dim>
					<dim>1</dim>
				</port>
			</input>
			<output>
				<port id="2" names="374" precision="FP16">
					<dim>1</dim>
					<dim>32</dim>
					<dim>128</dim>
					<dim>224</dim>
				</port>
			</output>
		</layer>
		<layer id="30" name="Clip_11" type="Clamp" version="opset1">
			<data max="6.0" min="0.0"/>
			<input>
				<port id="0">
					<dim>1</dim>
					<dim>32</dim>
					<dim>128</dim>
					<dim>224</dim>
				</port>
			</input>
			<output>
				<port id="1" names="375" precision="FP16">
					<dim>1</dim>
					<dim>32</dim>
					<dim>128</dim>
					<dim>224</dim>
				</port>
			</output>
		</layer>
		<layer id="31" name="1164711651_const" type="Const" version="opset1">
			<data element_type="f16" offset="2278" shape="1,32,1,1" size="64"/>
			<output>
				<port id="0" precision="FP16">
					<dim>1</dim>
					<dim>32</dim>
					<dim>1</dim>
					<dim>1</dim>
				</port>
			</output>
		</layer>
		<layer id="32" name="1164811652_const" type="Const" version="opset1">
			<data element_type="f16" offset="2342" shape="1,32,1,1" size="64"/>
			<output>
				<port id="0" precision="FP16">
					<dim>1</dim>
					<dim>32</dim>
					<dim>1</dim>
					<dim>1</dim>
				</port>
			</output>
		</layer>
		<layer id="33" name="1164911653_const" type="Const" version="opset1">
			<data element_type="f16" offset="2278" shape="1,32,1,1" size="64"/>
			<output>
				<port id="0" precision="FP16">
					<dim>1</dim>
					<dim>32</dim>
					<dim>1</dim>
					<dim>1</dim>
				</port>
			</output>
		</layer>
		<layer id="34" name="1165011654_const" type="Const" version="opset1">
			<data element_type="f16" offset="2342" shape="1,32,1,1" size="64"/>
			<output>
				<port id="0" precision="FP16">
					<dim>1</dim>
					<dim>32</dim>
					<dim>1</dim>
					<dim>1</dim>
				</port>
			</output>
		</layer>
		<layer id="35" name="Conv_12/fq_input_0" type="FakeQuantize" version="opset1">
			<data auto_broadcast="numpy" levels="256"/>
			<input>
				<port id="0">
					<dim>1</dim>
					<dim>32</dim>
					<dim>128</dim>
					<dim>224</dim>
				</port>
				<port id="1">
					<dim>1</dim>
					<dim>32</dim>
					<dim>1</dim>
					<dim>1</dim>
				</port>
				<port id="2">
					<dim>1</dim>
					<dim>32</dim>
					<dim>1</dim>
					<dim>1</dim>
				</port>
				<port id="3">
					<dim>1</dim>
					<dim>32</dim>
					<dim>1</dim>
					<dim>1</dim>
				</port>
				<port id="4">
					<dim>1</dim>
					<dim>32</dim>
					<dim>1</dim>
					<dim>1</dim>
				</port>
			</input>
			<output>
				<port id="5" precision="FP16">
					<dim>1</dim>
					<dim>32</dim>
					<dim>128</dim>
					<dim>224</dim>
				</port>
			</output>
		</layer>
		<layer id="36" name="101665101668_const304720460/quantized23907_const" type="Const" version="opset1">
			<data element_type="i8" offset="2406" shape="32,1,3,3" size="288"/>
			<output>
				<port id="0" precision="I8">
					<dim>32</dim>
					<dim>1</dim>
					<dim>3</dim>
					<dim>3</dim>
				</port>
			</output>
		</layer>
		<layer id="37" name="101665101668_const304720460/quantized/to_f16" type="Convert" version="opset1">
			<data destination_type="f16"/>
			<input>
				<port id="0">
					<dim>32</dim>
					<dim>1</dim>
					<dim>3</dim>
					<dim>3</dim>
				</port>
			</input>
			<output>
				<port id="1" precision="FP16">
					<dim>32</dim>
					<dim>1</dim>
					<dim>3</dim>
					<dim>3</dim>
				</port>
			</output>
		</layer>
		<layer id="38" name="Conv_12/fq_weights_1/zero_point23920_const" type="Const" version="opset1">
			<data element_type="f16" offset="2694" shape="32,1,1,1" size="64"/>
			<output>
				<port id="0" precision="FP16">
					<dim>32</dim>
					<dim>1</dim>
					<dim>1</dim>
					<dim>1</dim>
				</port>
			</output>
		</layer>
		<layer id="39" name="Conv_12/fq_weights_1/minus_zp" type="Subtract" version="opset1">
			<data auto_broadcast="numpy"/>
			<input>
				<port id="0">
					<dim>32</dim>
					<dim>1</dim>
					<dim>3</dim>
					<dim>3</dim>
				</port>
				<port id="1">
					<dim>32</dim>
					<dim>1</dim>
					<dim>1</dim>
					<dim>1</dim>
				</port>
			</input>
			<output>
				<port id="2" precision="FP16">
					<dim>32</dim>
					<dim>1</dim>
					<dim>3</dim>
					<dim>3</dim>
				</port>
			</output>
		</layer>
		<layer id="40" name="Conv_12/fq_weights_1/scale23915_const" type="Const" version="opset1">
			<data element_type="f16" offset="2758" shape="32,1,1,1" size="64"/>
			<output>
				<port id="0" precision="FP16">
					<dim>32</dim>
					<dim>1</dim>
					<dim>1</dim>
					<dim>1</dim>
				</port>
			</output>
		</layer>
		<layer id="41" name="Conv_12/fq_weights_1/mulpiply_by_scale" type="Multiply" version="opset1">
			<data auto_broadcast="numpy"/>
			<input>
				<port id="0">
					<dim>32</dim>
					<dim>1</dim>
					<dim>3</dim>
					<dim>3</dim>
				</port>
				<port id="1">
					<dim>32</dim>
					<dim>1</dim>
					<dim>1</dim>
					<dim>1</dim>
				</port>
			</input>
			<output>
				<port id="2" precision="FP16">
					<dim>32</dim>
					<dim>1</dim>
					<dim>3</dim>
					<dim>3</dim>
				</port>
			</output>
		</layer>
		<layer id="42" name="31022/value31024_const" type="Const" version="opset1">
			<data element_type="i64" offset="2822" shape="5" size="40"/>
			<output>
				<port id="0" precision="I64">
					<dim>5</dim>
				</port>
			</output>
		</layer>
		<layer id="43" name="31022" type="Reshape" version="opset1">
			<data special_zero="true"/>
			<input>
				<port id="0">
					<dim>32</dim>
					<dim>1</dim>
					<dim>3</dim>
					<dim>3</dim>
				</port>
				<port id="1">
					<dim>5</dim>
				</port>
			</input>
			<output>
				<port id="2" precision="FP16">
					<dim>32</dim>
					<dim>1</dim>
					<dim>1</dim>
					<dim>3</dim>
					<dim>3</dim>
				</port>
			</output>
		</layer>
		<layer id="44" name="Conv_12" type="GroupConvolution" version="opset1">
			<data auto_pad="explicit" dilations="1,1" pads_begin="1,1" pads_end="1,1" strides="1,1"/>
			<input>
				<port id="0">
					<dim>1</dim>
					<dim>32</dim>
					<dim>128</dim>
					<dim>224</dim>
				</port>
				<port id="1">
					<dim>32</dim>
					<dim>1</dim>
					<dim>1</dim>
					<dim>3</dim>
					<dim>3</dim>
				</port>
			</input>
			<output>
				<port id="2" precision="FP16">
					<dim>1</dim>
					<dim>32</dim>
					<dim>128</dim>
					<dim>224</dim>
				</port>
			</output>
		</layer>
		<layer id="45" name="data_add_470684707348850/EltwiseUnsqueeze49552_const3049_const" type="Const" version="opset1">
			<data element_type="f16" offset="2862" shape="1,32,1,1" size="64"/>
			<output>
				<port id="0" precision="FP16">
					<dim>1</dim>
					<dim>32</dim>
					<dim>1</dim>
					<dim>1</dim>
				</port>
			</output>
		</layer>
		<layer id="46" name="BatchNormalization_13/variance/Fused_Add_" type="Add" version="opset1">
			<data auto_broadcast="numpy"/>
			<input>
				<port id="0">
					<dim>1</dim>
					<dim>32</dim>
					<dim>128</dim>
					<dim>224</dim>
				</port>
				<port id="1">
					<dim>1</dim>
					<dim>32</dim>
					<dim>1</dim>
					<dim>1</dim>
				</port>
			</input>
			<output>
				<port id="2" names="377" precision="FP16">
					<dim>1</dim>
					<dim>32</dim>
					<dim>128</dim>
					<dim>224</dim>
				</port>
			</output>
		</layer>
		<layer id="47" name="Clip_14" type="Clamp" version="opset1">
			<data max="6.0" min="0.0"/>
			<input>
				<port id="0">
					<dim>1</dim>
					<dim>32</dim>
					<dim>128</dim>
					<dim>224</dim>
				</port>
			</input>
			<output>
				<port id="1" names="378" precision="FP16">
					<dim>1</dim>
					<dim>32</dim>
					<dim>128</dim>
					<dim>224</dim>
				</port>
			</output>
		</layer>
		<layer id="48" name="1296712971_const" type="Const" version="opset1">
			<data element_type="f16" offset="0" shape="" size="2"/>
			<output>
				<port id="0" precision="FP16"/>
			</output>
		</layer>
		<layer id="49" name="1296812972_const" type="Const" version="opset1">
			<data element_type="f16" offset="2926" shape="" size="2"/>
			<output>
				<port id="0" precision="FP16"/>
			</output>
		</layer>
		<layer id="50" name="1296912973_const" type="Const" version="opset1">
			<data element_type="f16" offset="0" shape="" size="2"/>
			<output>
				<port id="0" precision="FP16"/>
			</output>
		</layer>
		<layer id="51" name="1297012974_const" type="Const" version="opset1">
			<data element_type="f16" offset="2926" shape="" size="2"/>
			<output>
				<port id="0" precision="FP16"/>
			</output>
		</layer>
		<layer id="52" name="Conv_15/fq_input_0" type="FakeQuantize" version="opset1">
			<data auto_broadcast="numpy" levels="256"/>
			<input>
				<port id="0">
					<dim>1</dim>
					<dim>32</dim>
					<dim>128</dim>
					<dim>224</dim>
				</port>
				<port id="1"/>
				<port id="2"/>
				<port id="3"/>
				<port id="4"/>
			</input>
			<output>
				<port id="5" precision="FP16">
					<dim>1</dim>
					<dim>32</dim>
					<dim>128</dim>
					<dim>224</dim>
				</port>
			</output>
		</layer>
		<layer id="53" name="BatchNormalization_16/mean/Fused_Mul_5146151463_const305220462/quantized24171_const" type="Const" version="opset1">
			<data element_type="i8" offset="2928" shape="16,32,1,1" size="512"/>
			<output>
				<port id="0" precision="I8">
					<dim>16</dim>
					<dim>32</dim>
					<dim>1</dim>
					<dim>1</dim>
				</port>
			</output>
		</layer>
		<layer id="54" name="BatchNormalization_16/mean/Fused_Mul_5146151463_const305220462/quantized/to_f16" type="Convert" version="opset1">
			<data destination_type="f16"/>
			<input>
				<port id="0">
					<dim>16</dim>
					<dim>32</dim>
					<dim>1</dim>
					<dim>1</dim>
				</port>
			</input>
			<output>
				<port id="1" precision="FP16">
					<dim>16</dim>
					<dim>32</dim>
					<dim>1</dim>
					<dim>1</dim>
				</port>
			</output>
		</layer>
		<layer id="55" name="Conv_15/fq_weights_1/zero_point24184_const" type="Const" version="opset1">
			<data element_type="f16" offset="3440" shape="16,1,1,1" size="32"/>
			<output>
				<port id="0" precision="FP16">
					<dim>16</dim>
					<dim>1</dim>
					<dim>1</dim>
					<dim>1</dim>
				</port>
			</output>
		</layer>
		<layer id="56" name="Conv_15/fq_weights_1/minus_zp" type="Subtract" version="opset1">
			<data auto_broadcast="numpy"/>
			<input>
				<port id="0">
					<dim>16</dim>
					<dim>32</dim>
					<dim>1</dim>
					<dim>1</dim>
				</port>
				<port id="1">
					<dim>16</dim>
					<dim>1</dim>
					<dim>1</dim>
					<dim>1</dim>
				</port>
			</input>
			<output>
				<port id="2" precision="FP16">
					<dim>16</dim>
					<dim>32</dim>
					<dim>1</dim>
					<dim>1</dim>
				</port>
			</output>
		</layer>
		<layer id="57" name="Conv_15/fq_weights_1/scale24179_const" type="Const" version="opset1">
			<data element_type="f16" offset="3472" shape="16,1,1,1" size="32"/>
			<output>
				<port id="0" precision="FP16">
					<dim>16</dim>
					<dim>1</dim>
					<dim>1</dim>
					<dim>1</dim>
				</port>
			</output>
		</layer>
		<layer id="58" name="Conv_15/fq_weights_1/mulpiply_by_scale" type="Multiply" version="opset1">
			<data auto_broadcast="numpy"/>
			<input>
				<port id="0">
					<dim>16</dim>
					<dim>32</dim>
					<dim>1</dim>
					<dim>1</dim>
				</port>
				<port id="1">
					<dim>16</dim>
					<dim>1</dim>
					<dim>1</dim>
					<dim>1</dim>
				</port>
			</input>
			<output>
				<port id="2" precision="FP16">
					<dim>16</dim>
					<dim>32</dim>
					<dim>1</dim>
					<dim>1</dim>
				</port>
			</output>
		</layer>
		<layer id="59" name="Conv_15" type="Convolution" version="opset1">
			<data auto_pad="explicit" dilations="1,1" pads_begin="0,0" pads_end="0,0" strides="1,1"/>
			<input>
				<port id="0">
					<dim>1</dim>
					<dim>32</dim>
					<dim>128</dim>
					<dim>224</dim>
				</port>
				<port id="1">
					<dim>16</dim>
					<dim>32</dim>
					<dim>1</dim>
					<dim>1</dim>
				</port>
			</input>
			<output>
				<port id="2" precision="FP16">
					<dim>1</dim>
					<dim>16</dim>
					<dim>128</dim>
					<dim>224</dim>
				</port>
			</output>
		</layer>
		<layer id="60" name="data_add_470764708148852/EltwiseUnsqueeze49560_const3054_const" type="Const" version="opset1">
			<data element_type="f16" offset="3504" shape="1,16,1,1" size="32"/>
			<output>
				<port id="0" precision="FP16">
					<dim>1</dim>
					<dim>16</dim>
					<dim>1</dim>
					<dim>1</dim>
				</port>
			</output>
		</layer>
		<layer id="61" name="BatchNormalization_16/variance/Fused_Add_" type="Add" version="opset1">
			<data auto_broadcast="numpy"/>
			<input>
				<port id="0">
					<dim>1</dim>
					<dim>16</dim>
					<dim>128</dim>
					<dim>224</dim>
				</port>
				<port id="1">
					<dim>1</dim>
					<dim>16</dim>
					<dim>1</dim>
					<dim>1</dim>
				</port>
			</input>
			<output>
				<port id="2" names="380" precision="FP16">
					<dim>1</dim>
					<dim>16</dim>
					<dim>128</dim>
					<dim>224</dim>
				</port>
			</output>
		</layer>
		<layer id="62" name="1287712881_const" type="Const" version="opset1">
			<data element_type="f16" offset="3536" shape="" size="2"/>
			<output>
				<port id="0" precision="FP16"/>
			</output>
		</layer>
		<layer id="63" name="1287812882_const" type="Const" version="opset1">
			<data element_type="f16" offset="3538" shape="" size="2"/>
			<output>
				<port id="0" precision="FP16"/>
			</output>
		</layer>
		<layer id="64" name="1287912883_const" type="Const" version="opset1">
			<data element_type="f16" offset="3536" shape="" size="2"/>
			<output>
				<port id="0" precision="FP16"/>
			</output>
		</layer>
		<layer id="65" name="1288012884_const" type="Const" version="opset1">
			<data element_type="f16" offset="3538" shape="" size="2"/>
			<output>
				<port id="0" precision="FP16"/>
			</output>
		</layer>
		<layer id="66" name="Conv_17/fq_input_0" type="FakeQuantize" version="opset1">
			<data auto_broadcast="numpy" levels="256"/>
			<input>
				<port id="0">
					<dim>1</dim>
					<dim>16</dim>
					<dim>128</dim>
					<dim>224</dim>
				</port>
				<port id="1"/>
				<port id="2"/>
				<port id="3"/>
				<port id="4"/>
			</input>
			<output>
				<port id="5" precision="FP16">
					<dim>1</dim>
					<dim>16</dim>
					<dim>128</dim>
					<dim>224</dim>
				</port>
			</output>
		</layer>
		<layer id="67" name="BatchNormalization_18/mean/Fused_Mul_5146551467_const305620464/quantized23499_const" type="Const" version="opset1">
			<data element_type="i8" offset="3540" shape="96,16,1,1" size="1536"/>
			<output>
				<port id="0" precision="I8">
					<dim>96</dim>
					<dim>16</dim>
					<dim>1</dim>
					<dim>1</dim>
				</port>
			</output>
		</layer>
		<layer id="68" name="BatchNormalization_18/mean/Fused_Mul_5146551467_const305620464/quantized/to_f16" type="Convert" version="opset1">
			<data destination_type="f16"/>
			<input>
				<port id="0">
					<dim>96</dim>
					<dim>16</dim>
					<dim>1</dim>
					<dim>1</dim>
				</port>
			</input>
			<output>
				<port id="1" precision="FP16">
					<dim>96</dim>
					<dim>16</dim>
					<dim>1</dim>
					<dim>1</dim>
				</port>
			</output>
		</layer>
		<layer id="69" name="Conv_17/fq_weights_1/zero_point23512_const" type="Const" version="opset1">
			<data element_type="f16" offset="5076" shape="96,1,1,1" size="192"/>
			<output>
				<port id="0" precision="FP16">
					<dim>96</dim>
					<dim>1</dim>
					<dim>1</dim>
					<dim>1</dim>
				</port>
			</output>
		</layer>
		<layer id="70" name="Conv_17/fq_weights_1/minus_zp" type="Subtract" version="opset1">
			<data auto_broadcast="numpy"/>
			<input>
				<port id="0">
					<dim>96</dim>
					<dim>16</dim>
					<dim>1</dim>
					<dim>1</dim>
				</port>
				<port id="1">
					<dim>96</dim>
					<dim>1</dim>
					<dim>1</dim>
					<dim>1</dim>
				</port>
			</input>
			<output>
				<port id="2" precision="FP16">
					<dim>96</dim>
					<dim>16</dim>
					<dim>1</dim>
					<dim>1</dim>
				</port>
			</output>
		</layer>
		<layer id="71" name="Conv_17/fq_weights_1/scale23507_const" type="Const" version="opset1">
			<data element_type="f16" offset="5268" shape="96,1,1,1" size="192"/>
			<output>
				<port id="0" precision="FP16">
					<dim>96</dim>
					<dim>1</dim>
					<dim>1</dim>
					<dim>1</dim>
				</port>
			</output>
		</layer>
		<layer id="72" name="Conv_17/fq_weights_1/mulpiply_by_scale" type="Multiply" version="opset1">
			<data auto_broadcast="numpy"/>
			<input>
				<port id="0">
					<dim>96</dim>
					<dim>16</dim>
					<dim>1</dim>
					<dim>1</dim>
				</port>
				<port id="1">
					<dim>96</dim>
					<dim>1</dim>
					<dim>1</dim>
					<dim>1</dim>
				</port>
			</input>
			<output>
				<port id="2" precision="FP16">
					<dim>96</dim>
					<dim>16</dim>
					<dim>1</dim>
					<dim>1</dim>
				</port>
			</output>
		</layer>
		<layer id="73" name="Conv_17" type="Convolution" version="opset1">
			<data auto_pad="explicit" dilations="1,1" pads_begin="0,0" pads_end="0,0" strides="1,1"/>
			<input>
				<port id="0">
					<dim>1</dim>
					<dim>16</dim>
					<dim>128</dim>
					<dim>224</dim>
				</port>
				<port id="1">
					<dim>96</dim>
					<dim>16</dim>
					<dim>1</dim>
					<dim>1</dim>
				</port>
			</input>
			<output>
				<port id="2" precision="FP16">
					<dim>1</dim>
					<dim>96</dim>
					<dim>128</dim>
					<dim>224</dim>
				</port>
			</output>
		</layer>
		<layer id="74" name="data_add_470844708948854/EltwiseUnsqueeze49568_const3058_const" type="Const" version="opset1">
			<data element_type="f16" offset="5460" shape="1,96,1,1" size="192"/>
			<output>
				<port id="0" precision="FP16">
					<dim>1</dim>
					<dim>96</dim>
					<dim>1</dim>
					<dim>1</dim>
				</port>
			</output>
		</layer>
		<layer id="75" name="BatchNormalization_18/variance/Fused_Add_" type="Add" version="opset1">
			<data auto_broadcast="numpy"/>
			<input>
				<port id="0">
					<dim>1</dim>
					<dim>96</dim>
					<dim>128</dim>
					<dim>224</dim>
				</port>
				<port id="1">
					<dim>1</dim>
					<dim>96</dim>
					<dim>1</dim>
					<dim>1</dim>
				</port>
			</input>
			<output>
				<port id="2" names="382" precision="FP16">
					<dim>1</dim>
					<dim>96</dim>
					<dim>128</dim>
					<dim>224</dim>
				</port>
			</output>
		</layer>
		<layer id="76" name="Clip_19" type="Clamp" version="opset1">
			<data max="6.0" min="0.0"/>
			<input>
				<port id="0">
					<dim>1</dim>
					<dim>96</dim>
					<dim>128</dim>
					<dim>224</dim>
				</port>
			</input>
			<output>
				<port id="1" names="383" precision="FP16">
					<dim>1</dim>
					<dim>96</dim>
					<dim>128</dim>
					<dim>224</dim>
				</port>
			</output>
		</layer>
		<layer id="77" name="1013710141_const" type="Const" version="opset1">
			<data element_type="f16" offset="5652" shape="1,96,1,1" size="192"/>
			<output>
				<port id="0" precision="FP16">
					<dim>1</dim>
					<dim>96</dim>
					<dim>1</dim>
					<dim>1</dim>
				</port>
			</output>
		</layer>
		<layer id="78" name="1013810142_const" type="Const" version="opset1">
			<data element_type="f16" offset="5844" shape="1,96,1,1" size="192"/>
			<output>
				<port id="0" precision="FP16">
					<dim>1</dim>
					<dim>96</dim>
					<dim>1</dim>
					<dim>1</dim>
				</port>
			</output>
		</layer>
		<layer id="79" name="1013910143_const" type="Const" version="opset1">
			<data element_type="f16" offset="5652" shape="1,96,1,1" size="192"/>
			<output>
				<port id="0" precision="FP16">
					<dim>1</dim>
					<dim>96</dim>
					<dim>1</dim>
					<dim>1</dim>
				</port>
			</output>
		</layer>
		<layer id="80" name="1014010144_const" type="Const" version="opset1">
			<data element_type="f16" offset="5844" shape="1,96,1,1" size="192"/>
			<output>
				<port id="0" precision="FP16">
					<dim>1</dim>
					<dim>96</dim>
					<dim>1</dim>
					<dim>1</dim>
				</port>
			</output>
		</layer>
		<layer id="81" name="Conv_20/fq_input_0" type="FakeQuantize" version="opset1">
			<data auto_broadcast="numpy" levels="256"/>
			<input>
				<port id="0">
					<dim>1</dim>
					<dim>96</dim>
					<dim>128</dim>
					<dim>224</dim>
				</port>
				<port id="1">
					<dim>1</dim>
					<dim>96</dim>
					<dim>1</dim>
					<dim>1</dim>
				</port>
				<port id="2">
					<dim>1</dim>
					<dim>96</dim>
					<dim>1</dim>
					<dim>1</dim>
				</port>
				<port id="3">
					<dim>1</dim>
					<dim>96</dim>
					<dim>1</dim>
					<dim>1</dim>
				</port>
				<port id="4">
					<dim>1</dim>
					<dim>96</dim>
					<dim>1</dim>
					<dim>1</dim>
				</port>
			</input>
			<output>
				<port id="5" precision="FP16">
					<dim>1</dim>
					<dim>96</dim>
					<dim>128</dim>
					<dim>224</dim>
				</port>
			</output>
		</layer>
		<layer id="82" name="101689101692_const306120466/quantized23955_const" type="Const" version="opset1">
			<data element_type="i8" offset="6036" shape="96,1,3,3" size="864"/>
			<output>
				<port id="0" precision="I8">
					<dim>96</dim>
					<dim>1</dim>
					<dim>3</dim>
					<dim>3</dim>
				</port>
			</output>
		</layer>
		<layer id="83" name="101689101692_const306120466/quantized/to_f16" type="Convert" version="opset1">
			<data destination_type="f16"/>
			<input>
				<port id="0">
					<dim>96</dim>
					<dim>1</dim>
					<dim>3</dim>
					<dim>3</dim>
				</port>
			</input>
			<output>
				<port id="1" precision="FP16">
					<dim>96</dim>
					<dim>1</dim>
					<dim>3</dim>
					<dim>3</dim>
				</port>
			</output>
		</layer>
		<layer id="84" name="Conv_20/fq_weights_1/zero_point23968_const" type="Const" version="opset1">
			<data element_type="f16" offset="6900" shape="96,1,1,1" size="192"/>
			<output>
				<port id="0" precision="FP16">
					<dim>96</dim>
					<dim>1</dim>
					<dim>1</dim>
					<dim>1</dim>
				</port>
			</output>
		</layer>
		<layer id="85" name="Conv_20/fq_weights_1/minus_zp" type="Subtract" version="opset1">
			<data auto_broadcast="numpy"/>
			<input>
				<port id="0">
					<dim>96</dim>
					<dim>1</dim>
					<dim>3</dim>
					<dim>3</dim>
				</port>
				<port id="1">
					<dim>96</dim>
					<dim>1</dim>
					<dim>1</dim>
					<dim>1</dim>
				</port>
			</input>
			<output>
				<port id="2" precision="FP16">
					<dim>96</dim>
					<dim>1</dim>
					<dim>3</dim>
					<dim>3</dim>
				</port>
			</output>
		</layer>
		<layer id="86" name="Conv_20/fq_weights_1/scale23963_const" type="Const" version="opset1">
			<data element_type="f16" offset="7092" shape="96,1,1,1" size="192"/>
			<output>
				<port id="0" precision="FP16">
					<dim>96</dim>
					<dim>1</dim>
					<dim>1</dim>
					<dim>1</dim>
				</port>
			</output>
		</layer>
		<layer id="87" name="Conv_20/fq_weights_1/mulpiply_by_scale" type="Multiply" version="opset1">
			<data auto_broadcast="numpy"/>
			<input>
				<port id="0">
					<dim>96</dim>
					<dim>1</dim>
					<dim>3</dim>
					<dim>3</dim>
				</port>
				<port id="1">
					<dim>96</dim>
					<dim>1</dim>
					<dim>1</dim>
					<dim>1</dim>
				</port>
			</input>
			<output>
				<port id="2" precision="FP16">
					<dim>96</dim>
					<dim>1</dim>
					<dim>3</dim>
					<dim>3</dim>
				</port>
			</output>
		</layer>
		<layer id="88" name="30982/value30984_const" type="Const" version="opset1">
			<data element_type="i64" offset="7284" shape="5" size="40"/>
			<output>
				<port id="0" precision="I64">
					<dim>5</dim>
				</port>
			</output>
		</layer>
		<layer id="89" name="30982" type="Reshape" version="opset1">
			<data special_zero="true"/>
			<input>
				<port id="0">
					<dim>96</dim>
					<dim>1</dim>
					<dim>3</dim>
					<dim>3</dim>
				</port>
				<port id="1">
					<dim>5</dim>
				</port>
			</input>
			<output>
				<port id="2" precision="FP16">
					<dim>96</dim>
					<dim>1</dim>
					<dim>1</dim>
					<dim>3</dim>
					<dim>3</dim>
				</port>
			</output>
		</layer>
		<layer id="90" name="Conv_20" type="GroupConvolution" version="opset1">
			<data auto_pad="explicit" dilations="1,1" pads_begin="1,1" pads_end="1,1" strides="2,2"/>
			<input>
				<port id="0">
					<dim>1</dim>
					<dim>96</dim>
					<dim>128</dim>
					<dim>224</dim>
				</port>
				<port id="1">
					<dim>96</dim>
					<dim>1</dim>
					<dim>1</dim>
					<dim>3</dim>
					<dim>3</dim>
				</port>
			</input>
			<output>
				<port id="2" precision="FP16">
					<dim>1</dim>
					<dim>96</dim>
					<dim>64</dim>
					<dim>112</dim>
				</port>
			</output>
		</layer>
		<layer id="91" name="data_add_470924709748856/EltwiseUnsqueeze49576_const3063_const" type="Const" version="opset1">
			<data element_type="f16" offset="7324" shape="1,96,1,1" size="192"/>
			<output>
				<port id="0" precision="FP16">
					<dim>1</dim>
					<dim>96</dim>
					<dim>1</dim>
					<dim>1</dim>
				</port>
			</output>
		</layer>
		<layer id="92" name="BatchNormalization_21/variance/Fused_Add_" type="Add" version="opset1">
			<data auto_broadcast="numpy"/>
			<input>
				<port id="0">
					<dim>1</dim>
					<dim>96</dim>
					<dim>64</dim>
					<dim>112</dim>
				</port>
				<port id="1">
					<dim>1</dim>
					<dim>96</dim>
					<dim>1</dim>
					<dim>1</dim>
				</port>
			</input>
			<output>
				<port id="2" names="385" precision="FP16">
					<dim>1</dim>
					<dim>96</dim>
					<dim>64</dim>
					<dim>112</dim>
				</port>
			</output>
		</layer>
		<layer id="93" name="Clip_22" type="Clamp" version="opset1">
			<data max="6.0" min="0.0"/>
			<input>
				<port id="0">
					<dim>1</dim>
					<dim>96</dim>
					<dim>64</dim>
					<dim>112</dim>
				</port>
			</input>
			<output>
				<port id="1" names="386" precision="FP16">
					<dim>1</dim>
					<dim>96</dim>
					<dim>64</dim>
					<dim>112</dim>
				</port>
			</output>
		</layer>
		<layer id="94" name="1129711301_const" type="Const" version="opset1">
			<data element_type="f16" offset="0" shape="" size="2"/>
			<output>
				<port id="0" precision="FP16"/>
			</output>
		</layer>
		<layer id="95" name="1129811302_const" type="Const" version="opset1">
			<data element_type="f16" offset="7516" shape="" size="2"/>
			<output>
				<port id="0" precision="FP16"/>
			</output>
		</layer>
		<layer id="96" name="1129911303_const" type="Const" version="opset1">
			<data element_type="f16" offset="0" shape="" size="2"/>
			<output>
				<port id="0" precision="FP16"/>
			</output>
		</layer>
		<layer id="97" name="1130011304_const" type="Const" version="opset1">
			<data element_type="f16" offset="7516" shape="" size="2"/>
			<output>
				<port id="0" precision="FP16"/>
			</output>
		</layer>
		<layer id="98" name="Conv_23/fq_input_0" type="FakeQuantize" version="opset1">
			<data auto_broadcast="numpy" levels="256"/>
			<input>
				<port id="0">
					<dim>1</dim>
					<dim>96</dim>
					<dim>64</dim>
					<dim>112</dim>
				</port>
				<port id="1"/>
				<port id="2"/>
				<port id="3"/>
				<port id="4"/>
			</input>
			<output>
				<port id="5" precision="FP16">
					<dim>1</dim>
					<dim>96</dim>
					<dim>64</dim>
					<dim>112</dim>
				</port>
			</output>
		</layer>
		<layer id="99" name="BatchNormalization_24/mean/Fused_Mul_5147351475_const306620468/quantized23547_const" type="Const" version="opset1">
			<data element_type="i8" offset="7518" shape="24,96,1,1" size="2304"/>
			<output>
				<port id="0" precision="I8">
					<dim>24</dim>
					<dim>96</dim>
					<dim>1</dim>
					<dim>1</dim>
				</port>
			</output>
		</layer>
		<layer id="100" name="BatchNormalization_24/mean/Fused_Mul_5147351475_const306620468/quantized/to_f16" type="Convert" version="opset1">
			<data destination_type="f16"/>
			<input>
				<port id="0">
					<dim>24</dim>
					<dim>96</dim>
					<dim>1</dim>
					<dim>1</dim>
				</port>
			</input>
			<output>
				<port id="1" precision="FP16">
					<dim>24</dim>
					<dim>96</dim>
					<dim>1</dim>
					<dim>1</dim>
				</port>
			</output>
		</layer>
		<layer id="101" name="Conv_23/fq_weights_1/zero_point23560_const" type="Const" version="opset1">
			<data element_type="f16" offset="9822" shape="24,1,1,1" size="48"/>
			<output>
				<port id="0" precision="FP16">
					<dim>24</dim>
					<dim>1</dim>
					<dim>1</dim>
					<dim>1</dim>
				</port>
			</output>
		</layer>
		<layer id="102" name="Conv_23/fq_weights_1/minus_zp" type="Subtract" version="opset1">
			<data auto_broadcast="numpy"/>
			<input>
				<port id="0">
					<dim>24</dim>
					<dim>96</dim>
					<dim>1</dim>
					<dim>1</dim>
				</port>
				<port id="1">
					<dim>24</dim>
					<dim>1</dim>
					<dim>1</dim>
					<dim>1</dim>
				</port>
			</input>
			<output>
				<port id="2" precision="FP16">
					<dim>24</dim>
					<dim>96</dim>
					<dim>1</dim>
					<dim>1</dim>
				</port>
			</output>
		</layer>
		<layer id="103" name="Conv_23/fq_weights_1/scale23555_const" type="Const" version="opset1">
			<data element_type="f16" offset="9870" shape="24,1,1,1" size="48"/>
			<output>
				<port id="0" precision="FP16">
					<dim>24</dim>
					<dim>1</dim>
					<dim>1</dim>
					<dim>1</dim>
				</port>
			</output>
		</layer>
		<layer id="104" name="Conv_23/fq_weights_1/mulpiply_by_scale" type="Multiply" version="opset1">
			<data auto_broadcast="numpy"/>
			<input>
				<port id="0">
					<dim>24</dim>
					<dim>96</dim>
					<dim>1</dim>
					<dim>1</dim>
				</port>
				<port id="1">
					<dim>24</dim>
					<dim>1</dim>
					<dim>1</dim>
					<dim>1</dim>
				</port>
			</input>
			<output>
				<port id="2" precision="FP16">
					<dim>24</dim>
					<dim>96</dim>
					<dim>1</dim>
					<dim>1</dim>
				</port>
			</output>
		</layer>
		<layer id="105" name="Conv_23" type="Convolution" version="opset1">
			<data auto_pad="explicit" dilations="1,1" pads_begin="0,0" pads_end="0,0" strides="1,1"/>
			<input>
				<port id="0">
					<dim>1</dim>
					<dim>96</dim>
					<dim>64</dim>
					<dim>112</dim>
				</port>
				<port id="1">
					<dim>24</dim>
					<dim>96</dim>
					<dim>1</dim>
					<dim>1</dim>
				</port>
			</input>
			<output>
				<port id="2" precision="FP16">
					<dim>1</dim>
					<dim>24</dim>
					<dim>64</dim>
					<dim>112</dim>
				</port>
			</output>
		</layer>
		<layer id="106" name="data_add_471004710548858/EltwiseUnsqueeze49584_const3068_const" type="Const" version="opset1">
			<data element_type="f16" offset="9918" shape="1,24,1,1" size="48"/>
			<output>
				<port id="0" precision="FP16">
					<dim>1</dim>
					<dim>24</dim>
					<dim>1</dim>
					<dim>1</dim>
				</port>
			</output>
		</layer>
		<layer id="107" name="BatchNormalization_24/variance/Fused_Add_" type="Add" version="opset1">
			<data auto_broadcast="numpy"/>
			<input>
				<port id="0">
					<dim>1</dim>
					<dim>24</dim>
					<dim>64</dim>
					<dim>112</dim>
				</port>
				<port id="1">
					<dim>1</dim>
					<dim>24</dim>
					<dim>1</dim>
					<dim>1</dim>
				</port>
			</input>
			<output>
				<port id="2" names="388" precision="FP16">
					<dim>1</dim>
					<dim>24</dim>
					<dim>64</dim>
					<dim>112</dim>
				</port>
			</output>
		</layer>
		<layer id="108" name="1241712421_const" type="Const" version="opset1">
			<data element_type="f16" offset="9966" shape="" size="2"/>
			<output>
				<port id="0" precision="FP16"/>
			</output>
		</layer>
		<layer id="109" name="1241812422_const" type="Const" version="opset1">
			<data element_type="f16" offset="9968" shape="" size="2"/>
			<output>
				<port id="0" precision="FP16"/>
			</output>
		</layer>
		<layer id="110" name="1241912423_const" type="Const" version="opset1">
			<data element_type="f16" offset="9966" shape="" size="2"/>
			<output>
				<port id="0" precision="FP16"/>
			</output>
		</layer>
		<layer id="111" name="1242012424_const" type="Const" version="opset1">
			<data element_type="f16" offset="9968" shape="" size="2"/>
			<output>
				<port id="0" precision="FP16"/>
			</output>
		</layer>
		<layer id="112" name="Add_33/fq_input_1" type="FakeQuantize" version="opset1">
			<data auto_broadcast="numpy" levels="256"/>
			<input>
				<port id="0">
					<dim>1</dim>
					<dim>24</dim>
					<dim>64</dim>
					<dim>112</dim>
				</port>
				<port id="1"/>
				<port id="2"/>
				<port id="3"/>
				<port id="4"/>
			</input>
			<output>
				<port id="5" precision="FP16">
					<dim>1</dim>
					<dim>24</dim>
					<dim>64</dim>
					<dim>112</dim>
				</port>
			</output>
		</layer>
		<layer id="113" name="BatchNormalization_26/mean/Fused_Mul_5147751479_const307020470/quantized23307_const" type="Const" version="opset1">
			<data element_type="i8" offset="9970" shape="144,24,1,1" size="3456"/>
			<output>
				<port id="0" precision="I8">
					<dim>144</dim>
					<dim>24</dim>
					<dim>1</dim>
					<dim>1</dim>
				</port>
			</output>
		</layer>
		<layer id="114" name="BatchNormalization_26/mean/Fused_Mul_5147751479_const307020470/quantized/to_f16" type="Convert" version="opset1">
			<data destination_type="f16"/>
			<input>
				<port id="0">
					<dim>144</dim>
					<dim>24</dim>
					<dim>1</dim>
					<dim>1</dim>
				</port>
			</input>
			<output>
				<port id="1" precision="FP16">
					<dim>144</dim>
					<dim>24</dim>
					<dim>1</dim>
					<dim>1</dim>
				</port>
			</output>
		</layer>
		<layer id="115" name="Conv_25/fq_weights_1/zero_point23320_const" type="Const" version="opset1">
			<data element_type="f16" offset="13426" shape="144,1,1,1" size="288"/>
			<output>
				<port id="0" precision="FP16">
					<dim>144</dim>
					<dim>1</dim>
					<dim>1</dim>
					<dim>1</dim>
				</port>
			</output>
		</layer>
		<layer id="116" name="Conv_25/fq_weights_1/minus_zp" type="Subtract" version="opset1">
			<data auto_broadcast="numpy"/>
			<input>
				<port id="0">
					<dim>144</dim>
					<dim>24</dim>
					<dim>1</dim>
					<dim>1</dim>
				</port>
				<port id="1">
					<dim>144</dim>
					<dim>1</dim>
					<dim>1</dim>
					<dim>1</dim>
				</port>
			</input>
			<output>
				<port id="2" precision="FP16">
					<dim>144</dim>
					<dim>24</dim>
					<dim>1</dim>
					<dim>1</dim>
				</port>
			</output>
		</layer>
		<layer id="117" name="Conv_25/fq_weights_1/scale23315_const" type="Const" version="opset1">
			<data element_type="f16" offset="13714" shape="144,1,1,1" size="288"/>
			<output>
				<port id="0" precision="FP16">
					<dim>144</dim>
					<dim>1</dim>
					<dim>1</dim>
					<dim>1</dim>
				</port>
			</output>
		</layer>
		<layer id="118" name="Conv_25/fq_weights_1/mulpiply_by_scale" type="Multiply" version="opset1">
			<data auto_broadcast="numpy"/>
			<input>
				<port id="0">
					<dim>144</dim>
					<dim>24</dim>
					<dim>1</dim>
					<dim>1</dim>
				</port>
				<port id="1">
					<dim>144</dim>
					<dim>1</dim>
					<dim>1</dim>
					<dim>1</dim>
				</port>
			</input>
			<output>
				<port id="2" precision="FP16">
					<dim>144</dim>
					<dim>24</dim>
					<dim>1</dim>
					<dim>1</dim>
				</port>
			</output>
		</layer>
		<layer id="119" name="Conv_25" type="Convolution" version="opset1">
			<data auto_pad="explicit" dilations="1,1" pads_begin="0,0" pads_end="0,0" strides="1,1"/>
			<input>
				<port id="0">
					<dim>1</dim>
					<dim>24</dim>
					<dim>64</dim>
					<dim>112</dim>
				</port>
				<port id="1">
					<dim>144</dim>
					<dim>24</dim>
					<dim>1</dim>
					<dim>1</dim>
				</port>
			</input>
			<output>
				<port id="2" precision="FP16">
					<dim>1</dim>
					<dim>144</dim>
					<dim>64</dim>
					<dim>112</dim>
				</port>
			</output>
		</layer>
		<layer id="120" name="data_add_471084711348860/EltwiseUnsqueeze49592_const3072_const" type="Const" version="opset1">
			<data element_type="f16" offset="14002" shape="1,144,1,1" size="288"/>
			<output>
				<port id="0" precision="FP16">
					<dim>1</dim>
					<dim>144</dim>
					<dim>1</dim>
					<dim>1</dim>
				</port>
			</output>
		</layer>
		<layer id="121" name="BatchNormalization_26/variance/Fused_Add_" type="Add" version="opset1">
			<data auto_broadcast="numpy"/>
			<input>
				<port id="0">
					<dim>1</dim>
					<dim>144</dim>
					<dim>64</dim>
					<dim>112</dim>
				</port>
				<port id="1">
					<dim>1</dim>
					<dim>144</dim>
					<dim>1</dim>
					<dim>1</dim>
				</port>
			</input>
			<output>
				<port id="2" names="390" precision="FP16">
					<dim>1</dim>
					<dim>144</dim>
					<dim>64</dim>
					<dim>112</dim>
				</port>
			</output>
		</layer>
		<layer id="122" name="Clip_27" type="Clamp" version="opset1">
			<data max="6.0" min="0.0"/>
			<input>
				<port id="0">
					<dim>1</dim>
					<dim>144</dim>
					<dim>64</dim>
					<dim>112</dim>
				</port>
			</input>
			<output>
				<port id="1" names="391" precision="FP16">
					<dim>1</dim>
					<dim>144</dim>
					<dim>64</dim>
					<dim>112</dim>
				</port>
			</output>
		</layer>
		<layer id="123" name="1024710251_const" type="Const" version="opset1">
			<data element_type="f16" offset="14290" shape="1,144,1,1" size="288"/>
			<output>
				<port id="0" precision="FP16">
					<dim>1</dim>
					<dim>144</dim>
					<dim>1</dim>
					<dim>1</dim>
				</port>
			</output>
		</layer>
		<layer id="124" name="1024810252_const" type="Const" version="opset1">
			<data element_type="f16" offset="14578" shape="1,144,1,1" size="288"/>
			<output>
				<port id="0" precision="FP16">
					<dim>1</dim>
					<dim>144</dim>
					<dim>1</dim>
					<dim>1</dim>
				</port>
			</output>
		</layer>
		<layer id="125" name="1024910253_const" type="Const" version="opset1">
			<data element_type="f16" offset="14290" shape="1,144,1,1" size="288"/>
			<output>
				<port id="0" precision="FP16">
					<dim>1</dim>
					<dim>144</dim>
					<dim>1</dim>
					<dim>1</dim>
				</port>
			</output>
		</layer>
		<layer id="126" name="1025010254_const" type="Const" version="opset1">
			<data element_type="f16" offset="14578" shape="1,144,1,1" size="288"/>
			<output>
				<port id="0" precision="FP16">
					<dim>1</dim>
					<dim>144</dim>
					<dim>1</dim>
					<dim>1</dim>
				</port>
			</output>
		</layer>
		<layer id="127" name="Conv_28/fq_input_0" type="FakeQuantize" version="opset1">
			<data auto_broadcast="numpy" levels="256"/>
			<input>
				<port id="0">
					<dim>1</dim>
					<dim>144</dim>
					<dim>64</dim>
					<dim>112</dim>
				</port>
				<port id="1">
					<dim>1</dim>
					<dim>144</dim>
					<dim>1</dim>
					<dim>1</dim>
				</port>
				<port id="2">
					<dim>1</dim>
					<dim>144</dim>
					<dim>1</dim>
					<dim>1</dim>
				</port>
				<port id="3">
					<dim>1</dim>
					<dim>144</dim>
					<dim>1</dim>
					<dim>1</dim>
				</port>
				<port id="4">
					<dim>1</dim>
					<dim>144</dim>
					<dim>1</dim>
					<dim>1</dim>
				</port>
			</input>
			<output>
				<port id="5" precision="FP16">
					<dim>1</dim>
					<dim>144</dim>
					<dim>64</dim>
					<dim>112</dim>
				</port>
			</output>
		</layer>
		<layer id="128" name="101693101696_const307520472/quantized23931_const" type="Const" version="opset1">
			<data element_type="i8" offset="14866" shape="144,1,3,3" size="1296"/>
			<output>
				<port id="0" precision="I8">
					<dim>144</dim>
					<dim>1</dim>
					<dim>3</dim>
					<dim>3</dim>
				</port>
			</output>
		</layer>
		<layer id="129" name="101693101696_const307520472/quantized/to_f16" type="Convert" version="opset1">
			<data destination_type="f16"/>
			<input>
				<port id="0">
					<dim>144</dim>
					<dim>1</dim>
					<dim>3</dim>
					<dim>3</dim>
				</port>
			</input>
			<output>
				<port id="1" precision="FP16">
					<dim>144</dim>
					<dim>1</dim>
					<dim>3</dim>
					<dim>3</dim>
				</port>
			</output>
		</layer>
		<layer id="130" name="Conv_28/fq_weights_1/zero_point23944_const" type="Const" version="opset1">
			<data element_type="f16" offset="16162" shape="144,1,1,1" size="288"/>
			<output>
				<port id="0" precision="FP16">
					<dim>144</dim>
					<dim>1</dim>
					<dim>1</dim>
					<dim>1</dim>
				</port>
			</output>
		</layer>
		<layer id="131" name="Conv_28/fq_weights_1/minus_zp" type="Subtract" version="opset1">
			<data auto_broadcast="numpy"/>
			<input>
				<port id="0">
					<dim>144</dim>
					<dim>1</dim>
					<dim>3</dim>
					<dim>3</dim>
				</port>
				<port id="1">
					<dim>144</dim>
					<dim>1</dim>
					<dim>1</dim>
					<dim>1</dim>
				</port>
			</input>
			<output>
				<port id="2" precision="FP16">
					<dim>144</dim>
					<dim>1</dim>
					<dim>3</dim>
					<dim>3</dim>
				</port>
			</output>
		</layer>
		<layer id="132" name="Conv_28/fq_weights_1/scale23939_const" type="Const" version="opset1">
			<data element_type="f16" offset="16450" shape="144,1,1,1" size="288"/>
			<output>
				<port id="0" precision="FP16">
					<dim>144</dim>
					<dim>1</dim>
					<dim>1</dim>
					<dim>1</dim>
				</port>
			</output>
		</layer>
		<layer id="133" name="Conv_28/fq_weights_1/mulpiply_by_scale" type="Multiply" version="opset1">
			<data auto_broadcast="numpy"/>
			<input>
				<port id="0">
					<dim>144</dim>
					<dim>1</dim>
					<dim>3</dim>
					<dim>3</dim>
				</port>
				<port id="1">
					<dim>144</dim>
					<dim>1</dim>
					<dim>1</dim>
					<dim>1</dim>
				</port>
			</input>
			<output>
				<port id="2" precision="FP16">
					<dim>144</dim>
					<dim>1</dim>
					<dim>3</dim>
					<dim>3</dim>
				</port>
			</output>
		</layer>
		<layer id="134" name="30986/value30988_const" type="Const" version="opset1">
			<data element_type="i64" offset="16738" shape="5" size="40"/>
			<output>
				<port id="0" precision="I64">
					<dim>5</dim>
				</port>
			</output>
		</layer>
		<layer id="135" name="30986" type="Reshape" version="opset1">
			<data special_zero="true"/>
			<input>
				<port id="0">
					<dim>144</dim>
					<dim>1</dim>
					<dim>3</dim>
					<dim>3</dim>
				</port>
				<port id="1">
					<dim>5</dim>
				</port>
			</input>
			<output>
				<port id="2" precision="FP16">
					<dim>144</dim>
					<dim>1</dim>
					<dim>1</dim>
					<dim>3</dim>
					<dim>3</dim>
				</port>
			</output>
		</layer>
		<layer id="136" name="Conv_28" type="GroupConvolution" version="opset1">
			<data auto_pad="explicit" dilations="1,1" pads_begin="1,1" pads_end="1,1" strides="1,1"/>
			<input>
				<port id="0">
					<dim>1</dim>
					<dim>144</dim>
					<dim>64</dim>
					<dim>112</dim>
				</port>
				<port id="1">
					<dim>144</dim>
					<dim>1</dim>
					<dim>1</dim>
					<dim>3</dim>
					<dim>3</dim>
				</port>
			</input>
			<output>
				<port id="2" precision="FP16">
					<dim>1</dim>
					<dim>144</dim>
					<dim>64</dim>
					<dim>112</dim>
				</port>
			</output>
		</layer>
		<layer id="137" name="data_add_471164712148862/EltwiseUnsqueeze49600_const3077_const" type="Const" version="opset1">
			<data element_type="f16" offset="16778" shape="1,144,1,1" size="288"/>
			<output>
				<port id="0" precision="FP16">
					<dim>1</dim>
					<dim>144</dim>
					<dim>1</dim>
					<dim>1</dim>
				</port>
			</output>
		</layer>
		<layer id="138" name="BatchNormalization_29/variance/Fused_Add_" type="Add" version="opset1">
			<data auto_broadcast="numpy"/>
			<input>
				<port id="0">
					<dim>1</dim>
					<dim>144</dim>
					<dim>64</dim>
					<dim>112</dim>
				</port>
				<port id="1">
					<dim>1</dim>
					<dim>144</dim>
					<dim>1</dim>
					<dim>1</dim>
				</port>
			</input>
			<output>
				<port id="2" names="393" precision="FP16">
					<dim>1</dim>
					<dim>144</dim>
					<dim>64</dim>
					<dim>112</dim>
				</port>
			</output>
		</layer>
		<layer id="139" name="Clip_30" type="Clamp" version="opset1">
			<data max="6.0" min="0.0"/>
			<input>
				<port id="0">
					<dim>1</dim>
					<dim>144</dim>
					<dim>64</dim>
					<dim>112</dim>
				</port>
			</input>
			<output>
				<port id="1" names="394" precision="FP16">
					<dim>1</dim>
					<dim>144</dim>
					<dim>64</dim>
					<dim>112</dim>
				</port>
			</output>
		</layer>
		<layer id="140" name="1127711281_const" type="Const" version="opset1">
			<data element_type="f16" offset="0" shape="" size="2"/>
			<output>
				<port id="0" precision="FP16"/>
			</output>
		</layer>
		<layer id="141" name="1127811282_const" type="Const" version="opset1">
			<data element_type="f16" offset="17066" shape="" size="2"/>
			<output>
				<port id="0" precision="FP16"/>
			</output>
		</layer>
		<layer id="142" name="1127911283_const" type="Const" version="opset1">
			<data element_type="f16" offset="0" shape="" size="2"/>
			<output>
				<port id="0" precision="FP16"/>
			</output>
		</layer>
		<layer id="143" name="1128011284_const" type="Const" version="opset1">
			<data element_type="f16" offset="17066" shape="" size="2"/>
			<output>
				<port id="0" precision="FP16"/>
			</output>
		</layer>
		<layer id="144" name="Conv_31/fq_input_0" type="FakeQuantize" version="opset1">
			<data auto_broadcast="numpy" levels="256"/>
			<input>
				<port id="0">
					<dim>1</dim>
					<dim>144</dim>
					<dim>64</dim>
					<dim>112</dim>
				</port>
				<port id="1"/>
				<port id="2"/>
				<port id="3"/>
				<port id="4"/>
			</input>
			<output>
				<port id="5" precision="FP16">
					<dim>1</dim>
					<dim>144</dim>
					<dim>64</dim>
					<dim>112</dim>
				</port>
			</output>
		</layer>
		<layer id="145" name="BatchNormalization_32/mean/Fused_Mul_5148551487_const308020474/quantized24723_const" type="Const" version="opset1">
			<data element_type="i8" offset="17068" shape="24,144,1,1" size="3456"/>
			<output>
				<port id="0" precision="I8">
					<dim>24</dim>
					<dim>144</dim>
					<dim>1</dim>
					<dim>1</dim>
				</port>
			</output>
		</layer>
		<layer id="146" name="BatchNormalization_32/mean/Fused_Mul_5148551487_const308020474/quantized/to_f16" type="Convert" version="opset1">
			<data destination_type="f16"/>
			<input>
				<port id="0">
					<dim>24</dim>
					<dim>144</dim>
					<dim>1</dim>
					<dim>1</dim>
				</port>
			</input>
			<output>
				<port id="1" precision="FP16">
					<dim>24</dim>
					<dim>144</dim>
					<dim>1</dim>
					<dim>1</dim>
				</port>
			</output>
		</layer>
		<layer id="147" name="Conv_31/fq_weights_1/zero_point24736_const" type="Const" version="opset1">
			<data element_type="f16" offset="20524" shape="24,1,1,1" size="48"/>
			<output>
				<port id="0" precision="FP16">
					<dim>24</dim>
					<dim>1</dim>
					<dim>1</dim>
					<dim>1</dim>
				</port>
			</output>
		</layer>
		<layer id="148" name="Conv_31/fq_weights_1/minus_zp" type="Subtract" version="opset1">
			<data auto_broadcast="numpy"/>
			<input>
				<port id="0">
					<dim>24</dim>
					<dim>144</dim>
					<dim>1</dim>
					<dim>1</dim>
				</port>
				<port id="1">
					<dim>24</dim>
					<dim>1</dim>
					<dim>1</dim>
					<dim>1</dim>
				</port>
			</input>
			<output>
				<port id="2" precision="FP16">
					<dim>24</dim>
					<dim>144</dim>
					<dim>1</dim>
					<dim>1</dim>
				</port>
			</output>
		</layer>
		<layer id="149" name="Conv_31/fq_weights_1/scale24731_const" type="Const" version="opset1">
			<data element_type="f16" offset="20572" shape="24,1,1,1" size="48"/>
			<output>
				<port id="0" precision="FP16">
					<dim>24</dim>
					<dim>1</dim>
					<dim>1</dim>
					<dim>1</dim>
				</port>
			</output>
		</layer>
		<layer id="150" name="Conv_31/fq_weights_1/mulpiply_by_scale" type="Multiply" version="opset1">
			<data auto_broadcast="numpy"/>
			<input>
				<port id="0">
					<dim>24</dim>
					<dim>144</dim>
					<dim>1</dim>
					<dim>1</dim>
				</port>
				<port id="1">
					<dim>24</dim>
					<dim>1</dim>
					<dim>1</dim>
					<dim>1</dim>
				</port>
			</input>
			<output>
				<port id="2" precision="FP16">
					<dim>24</dim>
					<dim>144</dim>
					<dim>1</dim>
					<dim>1</dim>
				</port>
			</output>
		</layer>
		<layer id="151" name="Conv_31" type="Convolution" version="opset1">
			<data auto_pad="explicit" dilations="1,1" pads_begin="0,0" pads_end="0,0" strides="1,1"/>
			<input>
				<port id="0">
					<dim>1</dim>
					<dim>144</dim>
					<dim>64</dim>
					<dim>112</dim>
				</port>
				<port id="1">
					<dim>24</dim>
					<dim>144</dim>
					<dim>1</dim>
					<dim>1</dim>
				</port>
			</input>
			<output>
				<port id="2" precision="FP16">
					<dim>1</dim>
					<dim>24</dim>
					<dim>64</dim>
					<dim>112</dim>
				</port>
			</output>
		</layer>
		<layer id="152" name="data_add_471244712948864/EltwiseUnsqueeze49608_const3082_const" type="Const" version="opset1">
			<data element_type="f16" offset="20620" shape="1,24,1,1" size="48"/>
			<output>
				<port id="0" precision="FP16">
					<dim>1</dim>
					<dim>24</dim>
					<dim>1</dim>
					<dim>1</dim>
				</port>
			</output>
		</layer>
		<layer id="153" name="BatchNormalization_32/variance/Fused_Add_" type="Add" version="opset1">
			<data auto_broadcast="numpy"/>
			<input>
				<port id="0">
					<dim>1</dim>
					<dim>24</dim>
					<dim>64</dim>
					<dim>112</dim>
				</port>
				<port id="1">
					<dim>1</dim>
					<dim>24</dim>
					<dim>1</dim>
					<dim>1</dim>
				</port>
			</input>
			<output>
				<port id="2" names="396" precision="FP16">
					<dim>1</dim>
					<dim>24</dim>
					<dim>64</dim>
					<dim>112</dim>
				</port>
			</output>
		</layer>
		<layer id="154" name="1240712411_const" type="Const" version="opset1">
			<data element_type="f16" offset="20668" shape="" size="2"/>
			<output>
				<port id="0" precision="FP16"/>
			</output>
		</layer>
		<layer id="155" name="1240812412_const" type="Const" version="opset1">
			<data element_type="f16" offset="20670" shape="" size="2"/>
			<output>
				<port id="0" precision="FP16"/>
			</output>
		</layer>
		<layer id="156" name="1240912413_const" type="Const" version="opset1">
			<data element_type="f16" offset="20668" shape="" size="2"/>
			<output>
				<port id="0" precision="FP16"/>
			</output>
		</layer>
		<layer id="157" name="1241012414_const" type="Const" version="opset1">
			<data element_type="f16" offset="20670" shape="" size="2"/>
			<output>
				<port id="0" precision="FP16"/>
			</output>
		</layer>
		<layer id="158" name="Add_33/fq_input_0" type="FakeQuantize" version="opset1">
			<data auto_broadcast="numpy" levels="256"/>
			<input>
				<port id="0">
					<dim>1</dim>
					<dim>24</dim>
					<dim>64</dim>
					<dim>112</dim>
				</port>
				<port id="1"/>
				<port id="2"/>
				<port id="3"/>
				<port id="4"/>
			</input>
			<output>
				<port id="5" precision="FP16">
					<dim>1</dim>
					<dim>24</dim>
					<dim>64</dim>
					<dim>112</dim>
				</port>
			</output>
		</layer>
		<layer id="159" name="Add_33" type="Add" version="opset1">
			<data auto_broadcast="numpy"/>
			<input>
				<port id="0">
					<dim>1</dim>
					<dim>24</dim>
					<dim>64</dim>
					<dim>112</dim>
				</port>
				<port id="1">
					<dim>1</dim>
					<dim>24</dim>
					<dim>64</dim>
					<dim>112</dim>
				</port>
			</input>
			<output>
				<port id="2" names="397" precision="FP16">
					<dim>1</dim>
					<dim>24</dim>
					<dim>64</dim>
					<dim>112</dim>
				</port>
			</output>
		</layer>
		<layer id="160" name="1242712431_const" type="Const" version="opset1">
			<data element_type="f16" offset="20672" shape="" size="2"/>
			<output>
				<port id="0" precision="FP16"/>
			</output>
		</layer>
		<layer id="161" name="1242812432_const" type="Const" version="opset1">
			<data element_type="f16" offset="20674" shape="" size="2"/>
			<output>
				<port id="0" precision="FP16"/>
			</output>
		</layer>
		<layer id="162" name="1242912433_const" type="Const" version="opset1">
			<data element_type="f16" offset="20672" shape="" size="2"/>
			<output>
				<port id="0" precision="FP16"/>
			</output>
		</layer>
		<layer id="163" name="1243012434_const" type="Const" version="opset1">
			<data element_type="f16" offset="20674" shape="" size="2"/>
			<output>
				<port id="0" precision="FP16"/>
			</output>
		</layer>
		<layer id="164" name="Conv_34/fq_input_0" type="FakeQuantize" version="opset1">
			<data auto_broadcast="numpy" levels="256"/>
			<input>
				<port id="0">
					<dim>1</dim>
					<dim>24</dim>
					<dim>64</dim>
					<dim>112</dim>
				</port>
				<port id="1"/>
				<port id="2"/>
				<port id="3"/>
				<port id="4"/>
			</input>
			<output>
				<port id="5" precision="FP16">
					<dim>1</dim>
					<dim>24</dim>
					<dim>64</dim>
					<dim>112</dim>
				</port>
			</output>
		</layer>
		<layer id="165" name="BatchNormalization_35/mean/Fused_Mul_5148951491_const308520476/quantized23475_const" type="Const" version="opset1">
			<data element_type="i8" offset="20676" shape="144,24,1,1" size="3456"/>
			<output>
				<port id="0" precision="I8">
					<dim>144</dim>
					<dim>24</dim>
					<dim>1</dim>
					<dim>1</dim>
				</port>
			</output>
		</layer>
		<layer id="166" name="BatchNormalization_35/mean/Fused_Mul_5148951491_const308520476/quantized/to_f16" type="Convert" version="opset1">
			<data destination_type="f16"/>
			<input>
				<port id="0">
					<dim>144</dim>
					<dim>24</dim>
					<dim>1</dim>
					<dim>1</dim>
				</port>
			</input>
			<output>
				<port id="1" precision="FP16">
					<dim>144</dim>
					<dim>24</dim>
					<dim>1</dim>
					<dim>1</dim>
				</port>
			</output>
		</layer>
		<layer id="167" name="Conv_34/fq_weights_1/zero_point23488_const" type="Const" version="opset1">
			<data element_type="f16" offset="24132" shape="144,1,1,1" size="288"/>
			<output>
				<port id="0" precision="FP16">
					<dim>144</dim>
					<dim>1</dim>
					<dim>1</dim>
					<dim>1</dim>
				</port>
			</output>
		</layer>
		<layer id="168" name="Conv_34/fq_weights_1/minus_zp" type="Subtract" version="opset1">
			<data auto_broadcast="numpy"/>
			<input>
				<port id="0">
					<dim>144</dim>
					<dim>24</dim>
					<dim>1</dim>
					<dim>1</dim>
				</port>
				<port id="1">
					<dim>144</dim>
					<dim>1</dim>
					<dim>1</dim>
					<dim>1</dim>
				</port>
			</input>
			<output>
				<port id="2" precision="FP16">
					<dim>144</dim>
					<dim>24</dim>
					<dim>1</dim>
					<dim>1</dim>
				</port>
			</output>
		</layer>
		<layer id="169" name="Conv_34/fq_weights_1/scale23483_const" type="Const" version="opset1">
			<data element_type="f16" offset="24420" shape="144,1,1,1" size="288"/>
			<output>
				<port id="0" precision="FP16">
					<dim>144</dim>
					<dim>1</dim>
					<dim>1</dim>
					<dim>1</dim>
				</port>
			</output>
		</layer>
		<layer id="170" name="Conv_34/fq_weights_1/mulpiply_by_scale" type="Multiply" version="opset1">
			<data auto_broadcast="numpy"/>
			<input>
				<port id="0">
					<dim>144</dim>
					<dim>24</dim>
					<dim>1</dim>
					<dim>1</dim>
				</port>
				<port id="1">
					<dim>144</dim>
					<dim>1</dim>
					<dim>1</dim>
					<dim>1</dim>
				</port>
			</input>
			<output>
				<port id="2" precision="FP16">
					<dim>144</dim>
					<dim>24</dim>
					<dim>1</dim>
					<dim>1</dim>
				</port>
			</output>
		</layer>
		<layer id="171" name="Conv_34" type="Convolution" version="opset1">
			<data auto_pad="explicit" dilations="1,1" pads_begin="0,0" pads_end="0,0" strides="1,1"/>
			<input>
				<port id="0">
					<dim>1</dim>
					<dim>24</dim>
					<dim>64</dim>
					<dim>112</dim>
				</port>
				<port id="1">
					<dim>144</dim>
					<dim>24</dim>
					<dim>1</dim>
					<dim>1</dim>
				</port>
			</input>
			<output>
				<port id="2" precision="FP16">
					<dim>1</dim>
					<dim>144</dim>
					<dim>64</dim>
					<dim>112</dim>
				</port>
			</output>
		</layer>
		<layer id="172" name="data_add_471324713748866/EltwiseUnsqueeze49616_const3087_const" type="Const" version="opset1">
			<data element_type="f16" offset="24708" shape="1,144,1,1" size="288"/>
			<output>
				<port id="0" precision="FP16">
					<dim>1</dim>
					<dim>144</dim>
					<dim>1</dim>
					<dim>1</dim>
				</port>
			</output>
		</layer>
		<layer id="173" name="BatchNormalization_35/variance/Fused_Add_" type="Add" version="opset1">
			<data auto_broadcast="numpy"/>
			<input>
				<port id="0">
					<dim>1</dim>
					<dim>144</dim>
					<dim>64</dim>
					<dim>112</dim>
				</port>
				<port id="1">
					<dim>1</dim>
					<dim>144</dim>
					<dim>1</dim>
					<dim>1</dim>
				</port>
			</input>
			<output>
				<port id="2" names="399" precision="FP16">
					<dim>1</dim>
					<dim>144</dim>
					<dim>64</dim>
					<dim>112</dim>
				</port>
			</output>
		</layer>
		<layer id="174" name="Clip_36" type="Clamp" version="opset1">
			<data max="6.0" min="0.0"/>
			<input>
				<port id="0">
					<dim>1</dim>
					<dim>144</dim>
					<dim>64</dim>
					<dim>112</dim>
				</port>
			</input>
			<output>
				<port id="1" names="400" precision="FP16">
					<dim>1</dim>
					<dim>144</dim>
					<dim>64</dim>
					<dim>112</dim>
				</port>
			</output>
		</layer>
		<layer id="175" name="1221712221_const" type="Const" version="opset1">
			<data element_type="f16" offset="14290" shape="1,144,1,1" size="288"/>
			<output>
				<port id="0" precision="FP16">
					<dim>1</dim>
					<dim>144</dim>
					<dim>1</dim>
					<dim>1</dim>
				</port>
			</output>
		</layer>
		<layer id="176" name="1221812222_const" type="Const" version="opset1">
			<data element_type="f16" offset="24996" shape="1,144,1,1" size="288"/>
			<output>
				<port id="0" precision="FP16">
					<dim>1</dim>
					<dim>144</dim>
					<dim>1</dim>
					<dim>1</dim>
				</port>
			</output>
		</layer>
		<layer id="177" name="1221912223_const" type="Const" version="opset1">
			<data element_type="f16" offset="14290" shape="1,144,1,1" size="288"/>
			<output>
				<port id="0" precision="FP16">
					<dim>1</dim>
					<dim>144</dim>
					<dim>1</dim>
					<dim>1</dim>
				</port>
			</output>
		</layer>
		<layer id="178" name="1222012224_const" type="Const" version="opset1">
			<data element_type="f16" offset="24996" shape="1,144,1,1" size="288"/>
			<output>
				<port id="0" precision="FP16">
					<dim>1</dim>
					<dim>144</dim>
					<dim>1</dim>
					<dim>1</dim>
				</port>
			</output>
		</layer>
		<layer id="179" name="Conv_37/fq_input_0" type="FakeQuantize" version="opset1">
			<data auto_broadcast="numpy" levels="256"/>
			<input>
				<port id="0">
					<dim>1</dim>
					<dim>144</dim>
					<dim>64</dim>
					<dim>112</dim>
				</port>
				<port id="1">
					<dim>1</dim>
					<dim>144</dim>
					<dim>1</dim>
					<dim>1</dim>
				</port>
				<port id="2">
					<dim>1</dim>
					<dim>144</dim>
					<dim>1</dim>
					<dim>1</dim>
				</port>
				<port id="3">
					<dim>1</dim>
					<dim>144</dim>
					<dim>1</dim>
					<dim>1</dim>
				</port>
				<port id="4">
					<dim>1</dim>
					<dim>144</dim>
					<dim>1</dim>
					<dim>1</dim>
				</port>
			</input>
			<output>
				<port id="5" precision="FP16">
					<dim>1</dim>
					<dim>144</dim>
					<dim>64</dim>
					<dim>112</dim>
				</port>
			</output>
		</layer>
		<layer id="180" name="101649101652_const309020478/quantized24507_const" type="Const" version="opset1">
			<data element_type="i8" offset="25284" shape="144,1,3,3" size="1296"/>
			<output>
				<port id="0" precision="I8">
					<dim>144</dim>
					<dim>1</dim>
					<dim>3</dim>
					<dim>3</dim>
				</port>
			</output>
		</layer>
		<layer id="181" name="101649101652_const309020478/quantized/to_f16" type="Convert" version="opset1">
			<data destination_type="f16"/>
			<input>
				<port id="0">
					<dim>144</dim>
					<dim>1</dim>
					<dim>3</dim>
					<dim>3</dim>
				</port>
			</input>
			<output>
				<port id="1" precision="FP16">
					<dim>144</dim>
					<dim>1</dim>
					<dim>3</dim>
					<dim>3</dim>
				</port>
			</output>
		</layer>
		<layer id="182" name="Conv_37/fq_weights_1/zero_point24520_const" type="Const" version="opset1">
			<data element_type="f16" offset="26580" shape="144,1,1,1" size="288"/>
			<output>
				<port id="0" precision="FP16">
					<dim>144</dim>
					<dim>1</dim>
					<dim>1</dim>
					<dim>1</dim>
				</port>
			</output>
		</layer>
		<layer id="183" name="Conv_37/fq_weights_1/minus_zp" type="Subtract" version="opset1">
			<data auto_broadcast="numpy"/>
			<input>
				<port id="0">
					<dim>144</dim>
					<dim>1</dim>
					<dim>3</dim>
					<dim>3</dim>
				</port>
				<port id="1">
					<dim>144</dim>
					<dim>1</dim>
					<dim>1</dim>
					<dim>1</dim>
				</port>
			</input>
			<output>
				<port id="2" precision="FP16">
					<dim>144</dim>
					<dim>1</dim>
					<dim>3</dim>
					<dim>3</dim>
				</port>
			</output>
		</layer>
		<layer id="184" name="Conv_37/fq_weights_1/scale24515_const" type="Const" version="opset1">
			<data element_type="f16" offset="26868" shape="144,1,1,1" size="288"/>
			<output>
				<port id="0" precision="FP16">
					<dim>144</dim>
					<dim>1</dim>
					<dim>1</dim>
					<dim>1</dim>
				</port>
			</output>
		</layer>
		<layer id="185" name="Conv_37/fq_weights_1/mulpiply_by_scale" type="Multiply" version="opset1">
			<data auto_broadcast="numpy"/>
			<input>
				<port id="0">
					<dim>144</dim>
					<dim>1</dim>
					<dim>3</dim>
					<dim>3</dim>
				</port>
				<port id="1">
					<dim>144</dim>
					<dim>1</dim>
					<dim>1</dim>
					<dim>1</dim>
				</port>
			</input>
			<output>
				<port id="2" precision="FP16">
					<dim>144</dim>
					<dim>1</dim>
					<dim>3</dim>
					<dim>3</dim>
				</port>
			</output>
		</layer>
		<layer id="186" name="31038/value31040_const" type="Const" version="opset1">
			<data element_type="i64" offset="16738" shape="5" size="40"/>
			<output>
				<port id="0" precision="I64">
					<dim>5</dim>
				</port>
			</output>
		</layer>
		<layer id="187" name="31038" type="Reshape" version="opset1">
			<data special_zero="true"/>
			<input>
				<port id="0">
					<dim>144</dim>
					<dim>1</dim>
					<dim>3</dim>
					<dim>3</dim>
				</port>
				<port id="1">
					<dim>5</dim>
				</port>
			</input>
			<output>
				<port id="2" precision="FP16">
					<dim>144</dim>
					<dim>1</dim>
					<dim>1</dim>
					<dim>3</dim>
					<dim>3</dim>
				</port>
			</output>
		</layer>
		<layer id="188" name="Conv_37" type="GroupConvolution" version="opset1">
			<data auto_pad="explicit" dilations="1,1" pads_begin="1,1" pads_end="1,1" strides="2,2"/>
			<input>
				<port id="0">
					<dim>1</dim>
					<dim>144</dim>
					<dim>64</dim>
					<dim>112</dim>
				</port>
				<port id="1">
					<dim>144</dim>
					<dim>1</dim>
					<dim>1</dim>
					<dim>3</dim>
					<dim>3</dim>
				</port>
			</input>
			<output>
				<port id="2" precision="FP16">
					<dim>1</dim>
					<dim>144</dim>
					<dim>32</dim>
					<dim>56</dim>
				</port>
			</output>
		</layer>
		<layer id="189" name="data_add_471404714548868/EltwiseUnsqueeze49624_const3092_const" type="Const" version="opset1">
			<data element_type="f16" offset="27156" shape="1,144,1,1" size="288"/>
			<output>
				<port id="0" precision="FP16">
					<dim>1</dim>
					<dim>144</dim>
					<dim>1</dim>
					<dim>1</dim>
				</port>
			</output>
		</layer>
		<layer id="190" name="BatchNormalization_38/variance/Fused_Add_" type="Add" version="opset1">
			<data auto_broadcast="numpy"/>
			<input>
				<port id="0">
					<dim>1</dim>
					<dim>144</dim>
					<dim>32</dim>
					<dim>56</dim>
				</port>
				<port id="1">
					<dim>1</dim>
					<dim>144</dim>
					<dim>1</dim>
					<dim>1</dim>
				</port>
			</input>
			<output>
				<port id="2" names="402" precision="FP16">
					<dim>1</dim>
					<dim>144</dim>
					<dim>32</dim>
					<dim>56</dim>
				</port>
			</output>
		</layer>
		<layer id="191" name="Clip_39" type="Clamp" version="opset1">
			<data max="6.0" min="0.0"/>
			<input>
				<port id="0">
					<dim>1</dim>
					<dim>144</dim>
					<dim>32</dim>
					<dim>56</dim>
				</port>
			</input>
			<output>
				<port id="1" names="403" precision="FP16">
					<dim>1</dim>
					<dim>144</dim>
					<dim>32</dim>
					<dim>56</dim>
				</port>
			</output>
		</layer>
		<layer id="192" name="1092710931_const" type="Const" version="opset1">
			<data element_type="f16" offset="0" shape="" size="2"/>
			<output>
				<port id="0" precision="FP16"/>
			</output>
		</layer>
		<layer id="193" name="1092810932_const" type="Const" version="opset1">
			<data element_type="f16" offset="27444" shape="" size="2"/>
			<output>
				<port id="0" precision="FP16"/>
			</output>
		</layer>
		<layer id="194" name="1092910933_const" type="Const" version="opset1">
			<data element_type="f16" offset="0" shape="" size="2"/>
			<output>
				<port id="0" precision="FP16"/>
			</output>
		</layer>
		<layer id="195" name="1093010934_const" type="Const" version="opset1">
			<data element_type="f16" offset="27444" shape="" size="2"/>
			<output>
				<port id="0" precision="FP16"/>
			</output>
		</layer>
		<layer id="196" name="Conv_40/fq_input_0" type="FakeQuantize" version="opset1">
			<data auto_broadcast="numpy" levels="256"/>
			<input>
				<port id="0">
					<dim>1</dim>
					<dim>144</dim>
					<dim>32</dim>
					<dim>56</dim>
				</port>
				<port id="1"/>
				<port id="2"/>
				<port id="3"/>
				<port id="4"/>
			</input>
			<output>
				<port id="5" precision="FP16">
					<dim>1</dim>
					<dim>144</dim>
					<dim>32</dim>
					<dim>56</dim>
				</port>
			</output>
		</layer>
		<layer id="197" name="BatchNormalization_41/mean/Fused_Mul_5149751499_const309520480/quantized25275_const" type="Const" version="opset1">
			<data element_type="i8" offset="27446" shape="32,144,1,1" size="4608"/>
			<output>
				<port id="0" precision="I8">
					<dim>32</dim>
					<dim>144</dim>
					<dim>1</dim>
					<dim>1</dim>
				</port>
			</output>
		</layer>
		<layer id="198" name="BatchNormalization_41/mean/Fused_Mul_5149751499_const309520480/quantized/to_f16" type="Convert" version="opset1">
			<data destination_type="f16"/>
			<input>
				<port id="0">
					<dim>32</dim>
					<dim>144</dim>
					<dim>1</dim>
					<dim>1</dim>
				</port>
			</input>
			<output>
				<port id="1" precision="FP16">
					<dim>32</dim>
					<dim>144</dim>
					<dim>1</dim>
					<dim>1</dim>
				</port>
			</output>
		</layer>
		<layer id="199" name="Conv_40/fq_weights_1/zero_point25288_const" type="Const" version="opset1">
			<data element_type="f16" offset="32054" shape="32,1,1,1" size="64"/>
			<output>
				<port id="0" precision="FP16">
					<dim>32</dim>
					<dim>1</dim>
					<dim>1</dim>
					<dim>1</dim>
				</port>
			</output>
		</layer>
		<layer id="200" name="Conv_40/fq_weights_1/minus_zp" type="Subtract" version="opset1">
			<data auto_broadcast="numpy"/>
			<input>
				<port id="0">
					<dim>32</dim>
					<dim>144</dim>
					<dim>1</dim>
					<dim>1</dim>
				</port>
				<port id="1">
					<dim>32</dim>
					<dim>1</dim>
					<dim>1</dim>
					<dim>1</dim>
				</port>
			</input>
			<output>
				<port id="2" precision="FP16">
					<dim>32</dim>
					<dim>144</dim>
					<dim>1</dim>
					<dim>1</dim>
				</port>
			</output>
		</layer>
		<layer id="201" name="Conv_40/fq_weights_1/scale25283_const" type="Const" version="opset1">
			<data element_type="f16" offset="32118" shape="32,1,1,1" size="64"/>
			<output>
				<port id="0" precision="FP16">
					<dim>32</dim>
					<dim>1</dim>
					<dim>1</dim>
					<dim>1</dim>
				</port>
			</output>
		</layer>
		<layer id="202" name="Conv_40/fq_weights_1/mulpiply_by_scale" type="Multiply" version="opset1">
			<data auto_broadcast="numpy"/>
			<input>
				<port id="0">
					<dim>32</dim>
					<dim>144</dim>
					<dim>1</dim>
					<dim>1</dim>
				</port>
				<port id="1">
					<dim>32</dim>
					<dim>1</dim>
					<dim>1</dim>
					<dim>1</dim>
				</port>
			</input>
			<output>
				<port id="2" precision="FP16">
					<dim>32</dim>
					<dim>144</dim>
					<dim>1</dim>
					<dim>1</dim>
				</port>
			</output>
		</layer>
		<layer id="203" name="Conv_40" type="Convolution" version="opset1">
			<data auto_pad="explicit" dilations="1,1" pads_begin="0,0" pads_end="0,0" strides="1,1"/>
			<input>
				<port id="0">
					<dim>1</dim>
					<dim>144</dim>
					<dim>32</dim>
					<dim>56</dim>
				</port>
				<port id="1">
					<dim>32</dim>
					<dim>144</dim>
					<dim>1</dim>
					<dim>1</dim>
				</port>
			</input>
			<output>
				<port id="2" precision="FP16">
					<dim>1</dim>
					<dim>32</dim>
					<dim>32</dim>
					<dim>56</dim>
				</port>
			</output>
		</layer>
		<layer id="204" name="data_add_471484715348870/EltwiseUnsqueeze49632_const3097_const" type="Const" version="opset1">
			<data element_type="f16" offset="32182" shape="1,32,1,1" size="64"/>
			<output>
				<port id="0" precision="FP16">
					<dim>1</dim>
					<dim>32</dim>
					<dim>1</dim>
					<dim>1</dim>
				</port>
			</output>
		</layer>
		<layer id="205" name="BatchNormalization_41/variance/Fused_Add_" type="Add" version="opset1">
			<data auto_broadcast="numpy"/>
			<input>
				<port id="0">
					<dim>1</dim>
					<dim>32</dim>
					<dim>32</dim>
					<dim>56</dim>
				</port>
				<port id="1">
					<dim>1</dim>
					<dim>32</dim>
					<dim>1</dim>
					<dim>1</dim>
				</port>
			</input>
			<output>
				<port id="2" names="405" precision="FP16">
					<dim>1</dim>
					<dim>32</dim>
					<dim>32</dim>
					<dim>56</dim>
				</port>
			</output>
		</layer>
		<layer id="206" name="1210712111_const" type="Const" version="opset1">
			<data element_type="f16" offset="32246" shape="" size="2"/>
			<output>
				<port id="0" precision="FP16"/>
			</output>
		</layer>
		<layer id="207" name="1210812112_const" type="Const" version="opset1">
			<data element_type="f16" offset="32248" shape="" size="2"/>
			<output>
				<port id="0" precision="FP16"/>
			</output>
		</layer>
		<layer id="208" name="1210912113_const" type="Const" version="opset1">
			<data element_type="f16" offset="32246" shape="" size="2"/>
			<output>
				<port id="0" precision="FP16"/>
			</output>
		</layer>
		<layer id="209" name="1211012114_const" type="Const" version="opset1">
			<data element_type="f16" offset="32248" shape="" size="2"/>
			<output>
				<port id="0" precision="FP16"/>
			</output>
		</layer>
		<layer id="210" name="Add_50/fq_input_1" type="FakeQuantize" version="opset1">
			<data auto_broadcast="numpy" levels="256"/>
			<input>
				<port id="0">
					<dim>1</dim>
					<dim>32</dim>
					<dim>32</dim>
					<dim>56</dim>
				</port>
				<port id="1"/>
				<port id="2"/>
				<port id="3"/>
				<port id="4"/>
			</input>
			<output>
				<port id="5" precision="FP16">
					<dim>1</dim>
					<dim>32</dim>
					<dim>32</dim>
					<dim>56</dim>
				</port>
			</output>
		</layer>
		<layer id="211" name="BatchNormalization_43/mean/Fused_Mul_5150151503_const309920482/quantized25467_const" type="Const" version="opset1">
			<data element_type="i8" offset="32250" shape="192,32,1,1" size="6144"/>
			<output>
				<port id="0" precision="I8">
					<dim>192</dim>
					<dim>32</dim>
					<dim>1</dim>
					<dim>1</dim>
				</port>
			</output>
		</layer>
		<layer id="212" name="BatchNormalization_43/mean/Fused_Mul_5150151503_const309920482/quantized/to_f16" type="Convert" version="opset1">
			<data destination_type="f16"/>
			<input>
				<port id="0">
					<dim>192</dim>
					<dim>32</dim>
					<dim>1</dim>
					<dim>1</dim>
				</port>
			</input>
			<output>
				<port id="1" precision="FP16">
					<dim>192</dim>
					<dim>32</dim>
					<dim>1</dim>
					<dim>1</dim>
				</port>
			</output>
		</layer>
		<layer id="213" name="Conv_42/fq_weights_1/zero_point25480_const" type="Const" version="opset1">
			<data element_type="f16" offset="38394" shape="192,1,1,1" size="384"/>
			<output>
				<port id="0" precision="FP16">
					<dim>192</dim>
					<dim>1</dim>
					<dim>1</dim>
					<dim>1</dim>
				</port>
			</output>
		</layer>
		<layer id="214" name="Conv_42/fq_weights_1/minus_zp" type="Subtract" version="opset1">
			<data auto_broadcast="numpy"/>
			<input>
				<port id="0">
					<dim>192</dim>
					<dim>32</dim>
					<dim>1</dim>
					<dim>1</dim>
				</port>
				<port id="1">
					<dim>192</dim>
					<dim>1</dim>
					<dim>1</dim>
					<dim>1</dim>
				</port>
			</input>
			<output>
				<port id="2" precision="FP16">
					<dim>192</dim>
					<dim>32</dim>
					<dim>1</dim>
					<dim>1</dim>
				</port>
			</output>
		</layer>
		<layer id="215" name="Conv_42/fq_weights_1/scale25475_const" type="Const" version="opset1">
			<data element_type="f16" offset="38778" shape="192,1,1,1" size="384"/>
			<output>
				<port id="0" precision="FP16">
					<dim>192</dim>
					<dim>1</dim>
					<dim>1</dim>
					<dim>1</dim>
				</port>
			</output>
		</layer>
		<layer id="216" name="Conv_42/fq_weights_1/mulpiply_by_scale" type="Multiply" version="opset1">
			<data auto_broadcast="numpy"/>
			<input>
				<port id="0">
					<dim>192</dim>
					<dim>32</dim>
					<dim>1</dim>
					<dim>1</dim>
				</port>
				<port id="1">
					<dim>192</dim>
					<dim>1</dim>
					<dim>1</dim>
					<dim>1</dim>
				</port>
			</input>
			<output>
				<port id="2" precision="FP16">
					<dim>192</dim>
					<dim>32</dim>
					<dim>1</dim>
					<dim>1</dim>
				</port>
			</output>
		</layer>
		<layer id="217" name="Conv_42" type="Convolution" version="opset1">
			<data auto_pad="explicit" dilations="1,1" pads_begin="0,0" pads_end="0,0" strides="1,1"/>
			<input>
				<port id="0">
					<dim>1</dim>
					<dim>32</dim>
					<dim>32</dim>
					<dim>56</dim>
				</port>
				<port id="1">
					<dim>192</dim>
					<dim>32</dim>
					<dim>1</dim>
					<dim>1</dim>
				</port>
			</input>
			<output>
				<port id="2" precision="FP16">
					<dim>1</dim>
					<dim>192</dim>
					<dim>32</dim>
					<dim>56</dim>
				</port>
			</output>
		</layer>
		<layer id="218" name="data_add_471564716148872/EltwiseUnsqueeze49640_const3101_const" type="Const" version="opset1">
			<data element_type="f16" offset="39162" shape="1,192,1,1" size="384"/>
			<output>
				<port id="0" precision="FP16">
					<dim>1</dim>
					<dim>192</dim>
					<dim>1</dim>
					<dim>1</dim>
				</port>
			</output>
		</layer>
		<layer id="219" name="BatchNormalization_43/variance/Fused_Add_" type="Add" version="opset1">
			<data auto_broadcast="numpy"/>
			<input>
				<port id="0">
					<dim>1</dim>
					<dim>192</dim>
					<dim>32</dim>
					<dim>56</dim>
				</port>
				<port id="1">
					<dim>1</dim>
					<dim>192</dim>
					<dim>1</dim>
					<dim>1</dim>
				</port>
			</input>
			<output>
				<port id="2" names="407" precision="FP16">
					<dim>1</dim>
					<dim>192</dim>
					<dim>32</dim>
					<dim>56</dim>
				</port>
			</output>
		</layer>
		<layer id="220" name="Clip_44" type="Clamp" version="opset1">
			<data max="6.0" min="0.0"/>
			<input>
				<port id="0">
					<dim>1</dim>
					<dim>192</dim>
					<dim>32</dim>
					<dim>56</dim>
				</port>
			</input>
			<output>
				<port id="1" names="408" precision="FP16">
					<dim>1</dim>
					<dim>192</dim>
					<dim>32</dim>
					<dim>56</dim>
				</port>
			</output>
		</layer>
		<layer id="221" name="1072710731_const" type="Const" version="opset1">
			<data element_type="f16" offset="39546" shape="1,192,1,1" size="384"/>
			<output>
				<port id="0" precision="FP16">
					<dim>1</dim>
					<dim>192</dim>
					<dim>1</dim>
					<dim>1</dim>
				</port>
			</output>
		</layer>
		<layer id="222" name="1072810732_const" type="Const" version="opset1">
			<data element_type="f16" offset="39930" shape="1,192,1,1" size="384"/>
			<output>
				<port id="0" precision="FP16">
					<dim>1</dim>
					<dim>192</dim>
					<dim>1</dim>
					<dim>1</dim>
				</port>
			</output>
		</layer>
		<layer id="223" name="1072910733_const" type="Const" version="opset1">
			<data element_type="f16" offset="39546" shape="1,192,1,1" size="384"/>
			<output>
				<port id="0" precision="FP16">
					<dim>1</dim>
					<dim>192</dim>
					<dim>1</dim>
					<dim>1</dim>
				</port>
			</output>
		</layer>
		<layer id="224" name="1073010734_const" type="Const" version="opset1">
			<data element_type="f16" offset="39930" shape="1,192,1,1" size="384"/>
			<output>
				<port id="0" precision="FP16">
					<dim>1</dim>
					<dim>192</dim>
					<dim>1</dim>
					<dim>1</dim>
				</port>
			</output>
		</layer>
		<layer id="225" name="Conv_45/fq_input_0" type="FakeQuantize" version="opset1">
			<data auto_broadcast="numpy" levels="256"/>
			<input>
				<port id="0">
					<dim>1</dim>
					<dim>192</dim>
					<dim>32</dim>
					<dim>56</dim>
				</port>
				<port id="1">
					<dim>1</dim>
					<dim>192</dim>
					<dim>1</dim>
					<dim>1</dim>
				</port>
				<port id="2">
					<dim>1</dim>
					<dim>192</dim>
					<dim>1</dim>
					<dim>1</dim>
				</port>
				<port id="3">
					<dim>1</dim>
					<dim>192</dim>
					<dim>1</dim>
					<dim>1</dim>
				</port>
				<port id="4">
					<dim>1</dim>
					<dim>192</dim>
					<dim>1</dim>
					<dim>1</dim>
				</port>
			</input>
			<output>
				<port id="5" precision="FP16">
					<dim>1</dim>
					<dim>192</dim>
					<dim>32</dim>
					<dim>56</dim>
				</port>
			</output>
		</layer>
		<layer id="226" name="101685101688_const310420484/quantized25035_const" type="Const" version="opset1">
			<data element_type="i8" offset="40314" shape="192,1,3,3" size="1728"/>
			<output>
				<port id="0" precision="I8">
					<dim>192</dim>
					<dim>1</dim>
					<dim>3</dim>
					<dim>3</dim>
				</port>
			</output>
		</layer>
		<layer id="227" name="101685101688_const310420484/quantized/to_f16" type="Convert" version="opset1">
			<data destination_type="f16"/>
			<input>
				<port id="0">
					<dim>192</dim>
					<dim>1</dim>
					<dim>3</dim>
					<dim>3</dim>
				</port>
			</input>
			<output>
				<port id="1" precision="FP16">
					<dim>192</dim>
					<dim>1</dim>
					<dim>3</dim>
					<dim>3</dim>
				</port>
			</output>
		</layer>
		<layer id="228" name="Conv_45/fq_weights_1/zero_point25048_const" type="Const" version="opset1">
			<data element_type="f16" offset="42042" shape="192,1,1,1" size="384"/>
			<output>
				<port id="0" precision="FP16">
					<dim>192</dim>
					<dim>1</dim>
					<dim>1</dim>
					<dim>1</dim>
				</port>
			</output>
		</layer>
		<layer id="229" name="Conv_45/fq_weights_1/minus_zp" type="Subtract" version="opset1">
			<data auto_broadcast="numpy"/>
			<input>
				<port id="0">
					<dim>192</dim>
					<dim>1</dim>
					<dim>3</dim>
					<dim>3</dim>
				</port>
				<port id="1">
					<dim>192</dim>
					<dim>1</dim>
					<dim>1</dim>
					<dim>1</dim>
				</port>
			</input>
			<output>
				<port id="2" precision="FP16">
					<dim>192</dim>
					<dim>1</dim>
					<dim>3</dim>
					<dim>3</dim>
				</port>
			</output>
		</layer>
		<layer id="230" name="Conv_45/fq_weights_1/scale25043_const" type="Const" version="opset1">
			<data element_type="f16" offset="42426" shape="192,1,1,1" size="384"/>
			<output>
				<port id="0" precision="FP16">
					<dim>192</dim>
					<dim>1</dim>
					<dim>1</dim>
					<dim>1</dim>
				</port>
			</output>
		</layer>
		<layer id="231" name="Conv_45/fq_weights_1/mulpiply_by_scale" type="Multiply" version="opset1">
			<data auto_broadcast="numpy"/>
			<input>
				<port id="0">
					<dim>192</dim>
					<dim>1</dim>
					<dim>3</dim>
					<dim>3</dim>
				</port>
				<port id="1">
					<dim>192</dim>
					<dim>1</dim>
					<dim>1</dim>
					<dim>1</dim>
				</port>
			</input>
			<output>
				<port id="2" precision="FP16">
					<dim>192</dim>
					<dim>1</dim>
					<dim>3</dim>
					<dim>3</dim>
				</port>
			</output>
		</layer>
		<layer id="232" name="30998/value31000_const" type="Const" version="opset1">
			<data element_type="i64" offset="42810" shape="5" size="40"/>
			<output>
				<port id="0" precision="I64">
					<dim>5</dim>
				</port>
			</output>
		</layer>
		<layer id="233" name="30998" type="Reshape" version="opset1">
			<data special_zero="true"/>
			<input>
				<port id="0">
					<dim>192</dim>
					<dim>1</dim>
					<dim>3</dim>
					<dim>3</dim>
				</port>
				<port id="1">
					<dim>5</dim>
				</port>
			</input>
			<output>
				<port id="2" precision="FP16">
					<dim>192</dim>
					<dim>1</dim>
					<dim>1</dim>
					<dim>3</dim>
					<dim>3</dim>
				</port>
			</output>
		</layer>
		<layer id="234" name="Conv_45" type="GroupConvolution" version="opset1">
			<data auto_pad="explicit" dilations="1,1" pads_begin="1,1" pads_end="1,1" strides="1,1"/>
			<input>
				<port id="0">
					<dim>1</dim>
					<dim>192</dim>
					<dim>32</dim>
					<dim>56</dim>
				</port>
				<port id="1">
					<dim>192</dim>
					<dim>1</dim>
					<dim>1</dim>
					<dim>3</dim>
					<dim>3</dim>
				</port>
			</input>
			<output>
				<port id="2" precision="FP16">
					<dim>1</dim>
					<dim>192</dim>
					<dim>32</dim>
					<dim>56</dim>
				</port>
			</output>
		</layer>
		<layer id="235" name="data_add_471644716948874/EltwiseUnsqueeze49648_const3106_const" type="Const" version="opset1">
			<data element_type="f16" offset="42850" shape="1,192,1,1" size="384"/>
			<output>
				<port id="0" precision="FP16">
					<dim>1</dim>
					<dim>192</dim>
					<dim>1</dim>
					<dim>1</dim>
				</port>
			</output>
		</layer>
		<layer id="236" name="BatchNormalization_46/variance/Fused_Add_" type="Add" version="opset1">
			<data auto_broadcast="numpy"/>
			<input>
				<port id="0">
					<dim>1</dim>
					<dim>192</dim>
					<dim>32</dim>
					<dim>56</dim>
				</port>
				<port id="1">
					<dim>1</dim>
					<dim>192</dim>
					<dim>1</dim>
					<dim>1</dim>
				</port>
			</input>
			<output>
				<port id="2" names="410" precision="FP16">
					<dim>1</dim>
					<dim>192</dim>
					<dim>32</dim>
					<dim>56</dim>
				</port>
			</output>
		</layer>
		<layer id="237" name="Clip_47" type="Clamp" version="opset1">
			<data max="6.0" min="0.0"/>
			<input>
				<port id="0">
					<dim>1</dim>
					<dim>192</dim>
					<dim>32</dim>
					<dim>56</dim>
				</port>
			</input>
			<output>
				<port id="1" names="411" precision="FP16">
					<dim>1</dim>
					<dim>192</dim>
					<dim>32</dim>
					<dim>56</dim>
				</port>
			</output>
		</layer>
		<layer id="238" name="1217712181_const" type="Const" version="opset1">
			<data element_type="f16" offset="0" shape="" size="2"/>
			<output>
				<port id="0" precision="FP16"/>
			</output>
		</layer>
		<layer id="239" name="1217812182_const" type="Const" version="opset1">
			<data element_type="f16" offset="43234" shape="" size="2"/>
			<output>
				<port id="0" precision="FP16"/>
			</output>
		</layer>
		<layer id="240" name="1217912183_const" type="Const" version="opset1">
			<data element_type="f16" offset="0" shape="" size="2"/>
			<output>
				<port id="0" precision="FP16"/>
			</output>
		</layer>
		<layer id="241" name="1218012184_const" type="Const" version="opset1">
			<data element_type="f16" offset="43234" shape="" size="2"/>
			<output>
				<port id="0" precision="FP16"/>
			</output>
		</layer>
		<layer id="242" name="Conv_48/fq_input_0" type="FakeQuantize" version="opset1">
			<data auto_broadcast="numpy" levels="256"/>
			<input>
				<port id="0">
					<dim>1</dim>
					<dim>192</dim>
					<dim>32</dim>
					<dim>56</dim>
				</port>
				<port id="1"/>
				<port id="2"/>
				<port id="3"/>
				<port id="4"/>
			</input>
			<output>
				<port id="5" precision="FP16">
					<dim>1</dim>
					<dim>192</dim>
					<dim>32</dim>
					<dim>56</dim>
				</port>
			</output>
		</layer>
		<layer id="243" name="BatchNormalization_49/mean/Fused_Mul_5150951511_const310920486/quantized23523_const" type="Const" version="opset1">
			<data element_type="i8" offset="43236" shape="32,192,1,1" size="6144"/>
			<output>
				<port id="0" precision="I8">
					<dim>32</dim>
					<dim>192</dim>
					<dim>1</dim>
					<dim>1</dim>
				</port>
			</output>
		</layer>
		<layer id="244" name="BatchNormalization_49/mean/Fused_Mul_5150951511_const310920486/quantized/to_f16" type="Convert" version="opset1">
			<data destination_type="f16"/>
			<input>
				<port id="0">
					<dim>32</dim>
					<dim>192</dim>
					<dim>1</dim>
					<dim>1</dim>
				</port>
			</input>
			<output>
				<port id="1" precision="FP16">
					<dim>32</dim>
					<dim>192</dim>
					<dim>1</dim>
					<dim>1</dim>
				</port>
			</output>
		</layer>
		<layer id="245" name="Conv_48/fq_weights_1/zero_point23536_const" type="Const" version="opset1">
			<data element_type="f16" offset="49380" shape="32,1,1,1" size="64"/>
			<output>
				<port id="0" precision="FP16">
					<dim>32</dim>
					<dim>1</dim>
					<dim>1</dim>
					<dim>1</dim>
				</port>
			</output>
		</layer>
		<layer id="246" name="Conv_48/fq_weights_1/minus_zp" type="Subtract" version="opset1">
			<data auto_broadcast="numpy"/>
			<input>
				<port id="0">
					<dim>32</dim>
					<dim>192</dim>
					<dim>1</dim>
					<dim>1</dim>
				</port>
				<port id="1">
					<dim>32</dim>
					<dim>1</dim>
					<dim>1</dim>
					<dim>1</dim>
				</port>
			</input>
			<output>
				<port id="2" precision="FP16">
					<dim>32</dim>
					<dim>192</dim>
					<dim>1</dim>
					<dim>1</dim>
				</port>
			</output>
		</layer>
		<layer id="247" name="Conv_48/fq_weights_1/scale23531_const" type="Const" version="opset1">
			<data element_type="f16" offset="49444" shape="32,1,1,1" size="64"/>
			<output>
				<port id="0" precision="FP16">
					<dim>32</dim>
					<dim>1</dim>
					<dim>1</dim>
					<dim>1</dim>
				</port>
			</output>
		</layer>
		<layer id="248" name="Conv_48/fq_weights_1/mulpiply_by_scale" type="Multiply" version="opset1">
			<data auto_broadcast="numpy"/>
			<input>
				<port id="0">
					<dim>32</dim>
					<dim>192</dim>
					<dim>1</dim>
					<dim>1</dim>
				</port>
				<port id="1">
					<dim>32</dim>
					<dim>1</dim>
					<dim>1</dim>
					<dim>1</dim>
				</port>
			</input>
			<output>
				<port id="2" precision="FP16">
					<dim>32</dim>
					<dim>192</dim>
					<dim>1</dim>
					<dim>1</dim>
				</port>
			</output>
		</layer>
		<layer id="249" name="Conv_48" type="Convolution" version="opset1">
			<data auto_pad="explicit" dilations="1,1" pads_begin="0,0" pads_end="0,0" strides="1,1"/>
			<input>
				<port id="0">
					<dim>1</dim>
					<dim>192</dim>
					<dim>32</dim>
					<dim>56</dim>
				</port>
				<port id="1">
					<dim>32</dim>
					<dim>192</dim>
					<dim>1</dim>
					<dim>1</dim>
				</port>
			</input>
			<output>
				<port id="2" precision="FP16">
					<dim>1</dim>
					<dim>32</dim>
					<dim>32</dim>
					<dim>56</dim>
				</port>
			</output>
		</layer>
		<layer id="250" name="data_add_471724717748876/EltwiseUnsqueeze49656_const3111_const" type="Const" version="opset1">
			<data element_type="f16" offset="49508" shape="1,32,1,1" size="64"/>
			<output>
				<port id="0" precision="FP16">
					<dim>1</dim>
					<dim>32</dim>
					<dim>1</dim>
					<dim>1</dim>
				</port>
			</output>
		</layer>
		<layer id="251" name="BatchNormalization_49/variance/Fused_Add_" type="Add" version="opset1">
			<data auto_broadcast="numpy"/>
			<input>
				<port id="0">
					<dim>1</dim>
					<dim>32</dim>
					<dim>32</dim>
					<dim>56</dim>
				</port>
				<port id="1">
					<dim>1</dim>
					<dim>32</dim>
					<dim>1</dim>
					<dim>1</dim>
				</port>
			</input>
			<output>
				<port id="2" names="413" precision="FP16">
					<dim>1</dim>
					<dim>32</dim>
					<dim>32</dim>
					<dim>56</dim>
				</port>
			</output>
		</layer>
		<layer id="252" name="1209712101_const" type="Const" version="opset1">
			<data element_type="f16" offset="49572" shape="" size="2"/>
			<output>
				<port id="0" precision="FP16"/>
			</output>
		</layer>
		<layer id="253" name="1209812102_const" type="Const" version="opset1">
			<data element_type="f16" offset="49574" shape="" size="2"/>
			<output>
				<port id="0" precision="FP16"/>
			</output>
		</layer>
		<layer id="254" name="1209912103_const" type="Const" version="opset1">
			<data element_type="f16" offset="49572" shape="" size="2"/>
			<output>
				<port id="0" precision="FP16"/>
			</output>
		</layer>
		<layer id="255" name="1210012104_const" type="Const" version="opset1">
			<data element_type="f16" offset="49574" shape="" size="2"/>
			<output>
				<port id="0" precision="FP16"/>
			</output>
		</layer>
		<layer id="256" name="Add_50/fq_input_0" type="FakeQuantize" version="opset1">
			<data auto_broadcast="numpy" levels="256"/>
			<input>
				<port id="0">
					<dim>1</dim>
					<dim>32</dim>
					<dim>32</dim>
					<dim>56</dim>
				</port>
				<port id="1"/>
				<port id="2"/>
				<port id="3"/>
				<port id="4"/>
			</input>
			<output>
				<port id="5" precision="FP16">
					<dim>1</dim>
					<dim>32</dim>
					<dim>32</dim>
					<dim>56</dim>
				</port>
			</output>
		</layer>
		<layer id="257" name="Add_50" type="Add" version="opset1">
			<data auto_broadcast="numpy"/>
			<input>
				<port id="0">
					<dim>1</dim>
					<dim>32</dim>
					<dim>32</dim>
					<dim>56</dim>
				</port>
				<port id="1">
					<dim>1</dim>
					<dim>32</dim>
					<dim>32</dim>
					<dim>56</dim>
				</port>
			</input>
			<output>
				<port id="2" names="414" precision="FP16">
					<dim>1</dim>
					<dim>32</dim>
					<dim>32</dim>
					<dim>56</dim>
				</port>
			</output>
		</layer>
		<layer id="258" name="1265712661_const" type="Const" version="opset1">
			<data element_type="f16" offset="49576" shape="" size="2"/>
			<output>
				<port id="0" precision="FP16"/>
			</output>
		</layer>
		<layer id="259" name="1265812662_const" type="Const" version="opset1">
			<data element_type="f16" offset="49578" shape="" size="2"/>
			<output>
				<port id="0" precision="FP16"/>
			</output>
		</layer>
		<layer id="260" name="1265912663_const" type="Const" version="opset1">
			<data element_type="f16" offset="49576" shape="" size="2"/>
			<output>
				<port id="0" precision="FP16"/>
			</output>
		</layer>
		<layer id="261" name="1266012664_const" type="Const" version="opset1">
			<data element_type="f16" offset="49578" shape="" size="2"/>
			<output>
				<port id="0" precision="FP16"/>
			</output>
		</layer>
		<layer id="262" name="Add_59/fq_input_1" type="FakeQuantize" version="opset1">
			<data auto_broadcast="numpy" levels="256"/>
			<input>
				<port id="0">
					<dim>1</dim>
					<dim>32</dim>
					<dim>32</dim>
					<dim>56</dim>
				</port>
				<port id="1"/>
				<port id="2"/>
				<port id="3"/>
				<port id="4"/>
			</input>
			<output>
				<port id="5" precision="FP16">
					<dim>1</dim>
					<dim>32</dim>
					<dim>32</dim>
					<dim>56</dim>
				</port>
			</output>
		</layer>
		<layer id="263" name="BatchNormalization_52/mean/Fused_Mul_5151351515_const311420488/quantized24531_const" type="Const" version="opset1">
			<data element_type="i8" offset="49580" shape="192,32,1,1" size="6144"/>
			<output>
				<port id="0" precision="I8">
					<dim>192</dim>
					<dim>32</dim>
					<dim>1</dim>
					<dim>1</dim>
				</port>
			</output>
		</layer>
		<layer id="264" name="BatchNormalization_52/mean/Fused_Mul_5151351515_const311420488/quantized/to_f16" type="Convert" version="opset1">
			<data destination_type="f16"/>
			<input>
				<port id="0">
					<dim>192</dim>
					<dim>32</dim>
					<dim>1</dim>
					<dim>1</dim>
				</port>
			</input>
			<output>
				<port id="1" precision="FP16">
					<dim>192</dim>
					<dim>32</dim>
					<dim>1</dim>
					<dim>1</dim>
				</port>
			</output>
		</layer>
		<layer id="265" name="Conv_51/fq_weights_1/zero_point24544_const" type="Const" version="opset1">
			<data element_type="f16" offset="55724" shape="192,1,1,1" size="384"/>
			<output>
				<port id="0" precision="FP16">
					<dim>192</dim>
					<dim>1</dim>
					<dim>1</dim>
					<dim>1</dim>
				</port>
			</output>
		</layer>
		<layer id="266" name="Conv_51/fq_weights_1/minus_zp" type="Subtract" version="opset1">
			<data auto_broadcast="numpy"/>
			<input>
				<port id="0">
					<dim>192</dim>
					<dim>32</dim>
					<dim>1</dim>
					<dim>1</dim>
				</port>
				<port id="1">
					<dim>192</dim>
					<dim>1</dim>
					<dim>1</dim>
					<dim>1</dim>
				</port>
			</input>
			<output>
				<port id="2" precision="FP16">
					<dim>192</dim>
					<dim>32</dim>
					<dim>1</dim>
					<dim>1</dim>
				</port>
			</output>
		</layer>
		<layer id="267" name="Conv_51/fq_weights_1/scale24539_const" type="Const" version="opset1">
			<data element_type="f16" offset="56108" shape="192,1,1,1" size="384"/>
			<output>
				<port id="0" precision="FP16">
					<dim>192</dim>
					<dim>1</dim>
					<dim>1</dim>
					<dim>1</dim>
				</port>
			</output>
		</layer>
		<layer id="268" name="Conv_51/fq_weights_1/mulpiply_by_scale" type="Multiply" version="opset1">
			<data auto_broadcast="numpy"/>
			<input>
				<port id="0">
					<dim>192</dim>
					<dim>32</dim>
					<dim>1</dim>
					<dim>1</dim>
				</port>
				<port id="1">
					<dim>192</dim>
					<dim>1</dim>
					<dim>1</dim>
					<dim>1</dim>
				</port>
			</input>
			<output>
				<port id="2" precision="FP16">
					<dim>192</dim>
					<dim>32</dim>
					<dim>1</dim>
					<dim>1</dim>
				</port>
			</output>
		</layer>
		<layer id="269" name="Conv_51" type="Convolution" version="opset1">
			<data auto_pad="explicit" dilations="1,1" pads_begin="0,0" pads_end="0,0" strides="1,1"/>
			<input>
				<port id="0">
					<dim>1</dim>
					<dim>32</dim>
					<dim>32</dim>
					<dim>56</dim>
				</port>
				<port id="1">
					<dim>192</dim>
					<dim>32</dim>
					<dim>1</dim>
					<dim>1</dim>
				</port>
			</input>
			<output>
				<port id="2" precision="FP16">
					<dim>1</dim>
					<dim>192</dim>
					<dim>32</dim>
					<dim>56</dim>
				</port>
			</output>
		</layer>
		<layer id="270" name="data_add_471804718548878/EltwiseUnsqueeze49664_const3116_const" type="Const" version="opset1">
			<data element_type="f16" offset="56492" shape="1,192,1,1" size="384"/>
			<output>
				<port id="0" precision="FP16">
					<dim>1</dim>
					<dim>192</dim>
					<dim>1</dim>
					<dim>1</dim>
				</port>
			</output>
		</layer>
		<layer id="271" name="BatchNormalization_52/variance/Fused_Add_" type="Add" version="opset1">
			<data auto_broadcast="numpy"/>
			<input>
				<port id="0">
					<dim>1</dim>
					<dim>192</dim>
					<dim>32</dim>
					<dim>56</dim>
				</port>
				<port id="1">
					<dim>1</dim>
					<dim>192</dim>
					<dim>1</dim>
					<dim>1</dim>
				</port>
			</input>
			<output>
				<port id="2" names="416" precision="FP16">
					<dim>1</dim>
					<dim>192</dim>
					<dim>32</dim>
					<dim>56</dim>
				</port>
			</output>
		</layer>
		<layer id="272" name="Clip_53" type="Clamp" version="opset1">
			<data max="6.0" min="0.0"/>
			<input>
				<port id="0">
					<dim>1</dim>
					<dim>192</dim>
					<dim>32</dim>
					<dim>56</dim>
				</port>
			</input>
			<output>
				<port id="1" names="417" precision="FP16">
					<dim>1</dim>
					<dim>192</dim>
					<dim>32</dim>
					<dim>56</dim>
				</port>
			</output>
		</layer>
		<layer id="273" name="1026710271_const" type="Const" version="opset1">
			<data element_type="f16" offset="39546" shape="1,192,1,1" size="384"/>
			<output>
				<port id="0" precision="FP16">
					<dim>1</dim>
					<dim>192</dim>
					<dim>1</dim>
					<dim>1</dim>
				</port>
			</output>
		</layer>
		<layer id="274" name="1026810272_const" type="Const" version="opset1">
			<data element_type="f16" offset="56876" shape="1,192,1,1" size="384"/>
			<output>
				<port id="0" precision="FP16">
					<dim>1</dim>
					<dim>192</dim>
					<dim>1</dim>
					<dim>1</dim>
				</port>
			</output>
		</layer>
		<layer id="275" name="1026910273_const" type="Const" version="opset1">
			<data element_type="f16" offset="39546" shape="1,192,1,1" size="384"/>
			<output>
				<port id="0" precision="FP16">
					<dim>1</dim>
					<dim>192</dim>
					<dim>1</dim>
					<dim>1</dim>
				</port>
			</output>
		</layer>
		<layer id="276" name="1027010274_const" type="Const" version="opset1">
			<data element_type="f16" offset="56876" shape="1,192,1,1" size="384"/>
			<output>
				<port id="0" precision="FP16">
					<dim>1</dim>
					<dim>192</dim>
					<dim>1</dim>
					<dim>1</dim>
				</port>
			</output>
		</layer>
		<layer id="277" name="Conv_54/fq_input_0" type="FakeQuantize" version="opset1">
			<data auto_broadcast="numpy" levels="256"/>
			<input>
				<port id="0">
					<dim>1</dim>
					<dim>192</dim>
					<dim>32</dim>
					<dim>56</dim>
				</port>
				<port id="1">
					<dim>1</dim>
					<dim>192</dim>
					<dim>1</dim>
					<dim>1</dim>
				</port>
				<port id="2">
					<dim>1</dim>
					<dim>192</dim>
					<dim>1</dim>
					<dim>1</dim>
				</port>
				<port id="3">
					<dim>1</dim>
					<dim>192</dim>
					<dim>1</dim>
					<dim>1</dim>
				</port>
				<port id="4">
					<dim>1</dim>
					<dim>192</dim>
					<dim>1</dim>
					<dim>1</dim>
				</port>
			</input>
			<output>
				<port id="5" precision="FP16">
					<dim>1</dim>
					<dim>192</dim>
					<dim>32</dim>
					<dim>56</dim>
				</port>
			</output>
		</layer>
		<layer id="278" name="101637101640_const311920490/quantized23163_const" type="Const" version="opset1">
			<data element_type="i8" offset="57260" shape="192,1,3,3" size="1728"/>
			<output>
				<port id="0" precision="I8">
					<dim>192</dim>
					<dim>1</dim>
					<dim>3</dim>
					<dim>3</dim>
				</port>
			</output>
		</layer>
		<layer id="279" name="101637101640_const311920490/quantized/to_f16" type="Convert" version="opset1">
			<data destination_type="f16"/>
			<input>
				<port id="0">
					<dim>192</dim>
					<dim>1</dim>
					<dim>3</dim>
					<dim>3</dim>
				</port>
			</input>
			<output>
				<port id="1" precision="FP16">
					<dim>192</dim>
					<dim>1</dim>
					<dim>3</dim>
					<dim>3</dim>
				</port>
			</output>
		</layer>
		<layer id="280" name="Conv_54/fq_weights_1/zero_point23176_const" type="Const" version="opset1">
			<data element_type="f16" offset="58988" shape="192,1,1,1" size="384"/>
			<output>
				<port id="0" precision="FP16">
					<dim>192</dim>
					<dim>1</dim>
					<dim>1</dim>
					<dim>1</dim>
				</port>
			</output>
		</layer>
		<layer id="281" name="Conv_54/fq_weights_1/minus_zp" type="Subtract" version="opset1">
			<data auto_broadcast="numpy"/>
			<input>
				<port id="0">
					<dim>192</dim>
					<dim>1</dim>
					<dim>3</dim>
					<dim>3</dim>
				</port>
				<port id="1">
					<dim>192</dim>
					<dim>1</dim>
					<dim>1</dim>
					<dim>1</dim>
				</port>
			</input>
			<output>
				<port id="2" precision="FP16">
					<dim>192</dim>
					<dim>1</dim>
					<dim>3</dim>
					<dim>3</dim>
				</port>
			</output>
		</layer>
		<layer id="282" name="Conv_54/fq_weights_1/scale23171_const" type="Const" version="opset1">
			<data element_type="f16" offset="59372" shape="192,1,1,1" size="384"/>
			<output>
				<port id="0" precision="FP16">
					<dim>192</dim>
					<dim>1</dim>
					<dim>1</dim>
					<dim>1</dim>
				</port>
			</output>
		</layer>
		<layer id="283" name="Conv_54/fq_weights_1/mulpiply_by_scale" type="Multiply" version="opset1">
			<data auto_broadcast="numpy"/>
			<input>
				<port id="0">
					<dim>192</dim>
					<dim>1</dim>
					<dim>3</dim>
					<dim>3</dim>
				</port>
				<port id="1">
					<dim>192</dim>
					<dim>1</dim>
					<dim>1</dim>
					<dim>1</dim>
				</port>
			</input>
			<output>
				<port id="2" precision="FP16">
					<dim>192</dim>
					<dim>1</dim>
					<dim>3</dim>
					<dim>3</dim>
				</port>
			</output>
		</layer>
		<layer id="284" name="30990/value30992_const" type="Const" version="opset1">
			<data element_type="i64" offset="42810" shape="5" size="40"/>
			<output>
				<port id="0" precision="I64">
					<dim>5</dim>
				</port>
			</output>
		</layer>
		<layer id="285" name="30990" type="Reshape" version="opset1">
			<data special_zero="true"/>
			<input>
				<port id="0">
					<dim>192</dim>
					<dim>1</dim>
					<dim>3</dim>
					<dim>3</dim>
				</port>
				<port id="1">
					<dim>5</dim>
				</port>
			</input>
			<output>
				<port id="2" precision="FP16">
					<dim>192</dim>
					<dim>1</dim>
					<dim>1</dim>
					<dim>3</dim>
					<dim>3</dim>
				</port>
			</output>
		</layer>
		<layer id="286" name="Conv_54" type="GroupConvolution" version="opset1">
			<data auto_pad="explicit" dilations="1,1" pads_begin="1,1" pads_end="1,1" strides="1,1"/>
			<input>
				<port id="0">
					<dim>1</dim>
					<dim>192</dim>
					<dim>32</dim>
					<dim>56</dim>
				</port>
				<port id="1">
					<dim>192</dim>
					<dim>1</dim>
					<dim>1</dim>
					<dim>3</dim>
					<dim>3</dim>
				</port>
			</input>
			<output>
				<port id="2" precision="FP16">
					<dim>1</dim>
					<dim>192</dim>
					<dim>32</dim>
					<dim>56</dim>
				</port>
			</output>
		</layer>
		<layer id="287" name="data_add_471884719348880/EltwiseUnsqueeze49672_const3121_const" type="Const" version="opset1">
			<data element_type="f16" offset="59756" shape="1,192,1,1" size="384"/>
			<output>
				<port id="0" precision="FP16">
					<dim>1</dim>
					<dim>192</dim>
					<dim>1</dim>
					<dim>1</dim>
				</port>
			</output>
		</layer>
		<layer id="288" name="BatchNormalization_55/variance/Fused_Add_" type="Add" version="opset1">
			<data auto_broadcast="numpy"/>
			<input>
				<port id="0">
					<dim>1</dim>
					<dim>192</dim>
					<dim>32</dim>
					<dim>56</dim>
				</port>
				<port id="1">
					<dim>1</dim>
					<dim>192</dim>
					<dim>1</dim>
					<dim>1</dim>
				</port>
			</input>
			<output>
				<port id="2" names="419" precision="FP16">
					<dim>1</dim>
					<dim>192</dim>
					<dim>32</dim>
					<dim>56</dim>
				</port>
			</output>
		</layer>
		<layer id="289" name="Clip_56" type="Clamp" version="opset1">
			<data max="6.0" min="0.0"/>
			<input>
				<port id="0">
					<dim>1</dim>
					<dim>192</dim>
					<dim>32</dim>
					<dim>56</dim>
				</port>
			</input>
			<output>
				<port id="1" names="420" precision="FP16">
					<dim>1</dim>
					<dim>192</dim>
					<dim>32</dim>
					<dim>56</dim>
				</port>
			</output>
		</layer>
		<layer id="290" name="1162711631_const" type="Const" version="opset1">
			<data element_type="f16" offset="0" shape="" size="2"/>
			<output>
				<port id="0" precision="FP16"/>
			</output>
		</layer>
		<layer id="291" name="1162811632_const" type="Const" version="opset1">
			<data element_type="f16" offset="60140" shape="" size="2"/>
			<output>
				<port id="0" precision="FP16"/>
			</output>
		</layer>
		<layer id="292" name="1162911633_const" type="Const" version="opset1">
			<data element_type="f16" offset="0" shape="" size="2"/>
			<output>
				<port id="0" precision="FP16"/>
			</output>
		</layer>
		<layer id="293" name="1163011634_const" type="Const" version="opset1">
			<data element_type="f16" offset="60140" shape="" size="2"/>
			<output>
				<port id="0" precision="FP16"/>
			</output>
		</layer>
		<layer id="294" name="Conv_57/fq_input_0" type="FakeQuantize" version="opset1">
			<data auto_broadcast="numpy" levels="256"/>
			<input>
				<port id="0">
					<dim>1</dim>
					<dim>192</dim>
					<dim>32</dim>
					<dim>56</dim>
				</port>
				<port id="1"/>
				<port id="2"/>
				<port id="3"/>
				<port id="4"/>
			</input>
			<output>
				<port id="5" precision="FP16">
					<dim>1</dim>
					<dim>192</dim>
					<dim>32</dim>
					<dim>56</dim>
				</port>
			</output>
		</layer>
		<layer id="295" name="BatchNormalization_58/mean/Fused_Mul_5152151523_const312420492/quantized24387_const" type="Const" version="opset1">
			<data element_type="i8" offset="60142" shape="32,192,1,1" size="6144"/>
			<output>
				<port id="0" precision="I8">
					<dim>32</dim>
					<dim>192</dim>
					<dim>1</dim>
					<dim>1</dim>
				</port>
			</output>
		</layer>
		<layer id="296" name="BatchNormalization_58/mean/Fused_Mul_5152151523_const312420492/quantized/to_f16" type="Convert" version="opset1">
			<data destination_type="f16"/>
			<input>
				<port id="0">
					<dim>32</dim>
					<dim>192</dim>
					<dim>1</dim>
					<dim>1</dim>
				</port>
			</input>
			<output>
				<port id="1" precision="FP16">
					<dim>32</dim>
					<dim>192</dim>
					<dim>1</dim>
					<dim>1</dim>
				</port>
			</output>
		</layer>
		<layer id="297" name="Conv_57/fq_weights_1/zero_point24400_const" type="Const" version="opset1">
			<data element_type="f16" offset="66286" shape="32,1,1,1" size="64"/>
			<output>
				<port id="0" precision="FP16">
					<dim>32</dim>
					<dim>1</dim>
					<dim>1</dim>
					<dim>1</dim>
				</port>
			</output>
		</layer>
		<layer id="298" name="Conv_57/fq_weights_1/minus_zp" type="Subtract" version="opset1">
			<data auto_broadcast="numpy"/>
			<input>
				<port id="0">
					<dim>32</dim>
					<dim>192</dim>
					<dim>1</dim>
					<dim>1</dim>
				</port>
				<port id="1">
					<dim>32</dim>
					<dim>1</dim>
					<dim>1</dim>
					<dim>1</dim>
				</port>
			</input>
			<output>
				<port id="2" precision="FP16">
					<dim>32</dim>
					<dim>192</dim>
					<dim>1</dim>
					<dim>1</dim>
				</port>
			</output>
		</layer>
		<layer id="299" name="Conv_57/fq_weights_1/scale24395_const" type="Const" version="opset1">
			<data element_type="f16" offset="66350" shape="32,1,1,1" size="64"/>
			<output>
				<port id="0" precision="FP16">
					<dim>32</dim>
					<dim>1</dim>
					<dim>1</dim>
					<dim>1</dim>
				</port>
			</output>
		</layer>
		<layer id="300" name="Conv_57/fq_weights_1/mulpiply_by_scale" type="Multiply" version="opset1">
			<data auto_broadcast="numpy"/>
			<input>
				<port id="0">
					<dim>32</dim>
					<dim>192</dim>
					<dim>1</dim>
					<dim>1</dim>
				</port>
				<port id="1">
					<dim>32</dim>
					<dim>1</dim>
					<dim>1</dim>
					<dim>1</dim>
				</port>
			</input>
			<output>
				<port id="2" precision="FP16">
					<dim>32</dim>
					<dim>192</dim>
					<dim>1</dim>
					<dim>1</dim>
				</port>
			</output>
		</layer>
		<layer id="301" name="Conv_57" type="Convolution" version="opset1">
			<data auto_pad="explicit" dilations="1,1" pads_begin="0,0" pads_end="0,0" strides="1,1"/>
			<input>
				<port id="0">
					<dim>1</dim>
					<dim>192</dim>
					<dim>32</dim>
					<dim>56</dim>
				</port>
				<port id="1">
					<dim>32</dim>
					<dim>192</dim>
					<dim>1</dim>
					<dim>1</dim>
				</port>
			</input>
			<output>
				<port id="2" precision="FP16">
					<dim>1</dim>
					<dim>32</dim>
					<dim>32</dim>
					<dim>56</dim>
				</port>
			</output>
		</layer>
		<layer id="302" name="data_add_471964720148882/EltwiseUnsqueeze49680_const3126_const" type="Const" version="opset1">
			<data element_type="f16" offset="66414" shape="1,32,1,1" size="64"/>
			<output>
				<port id="0" precision="FP16">
					<dim>1</dim>
					<dim>32</dim>
					<dim>1</dim>
					<dim>1</dim>
				</port>
			</output>
		</layer>
		<layer id="303" name="BatchNormalization_58/variance/Fused_Add_" type="Add" version="opset1">
			<data auto_broadcast="numpy"/>
			<input>
				<port id="0">
					<dim>1</dim>
					<dim>32</dim>
					<dim>32</dim>
					<dim>56</dim>
				</port>
				<port id="1">
					<dim>1</dim>
					<dim>32</dim>
					<dim>1</dim>
					<dim>1</dim>
				</port>
			</input>
			<output>
				<port id="2" names="422" precision="FP16">
					<dim>1</dim>
					<dim>32</dim>
					<dim>32</dim>
					<dim>56</dim>
				</port>
			</output>
		</layer>
		<layer id="304" name="1264712651_const" type="Const" version="opset1">
			<data element_type="f16" offset="66478" shape="" size="2"/>
			<output>
				<port id="0" precision="FP16"/>
			</output>
		</layer>
		<layer id="305" name="1264812652_const" type="Const" version="opset1">
			<data element_type="f16" offset="66480" shape="" size="2"/>
			<output>
				<port id="0" precision="FP16"/>
			</output>
		</layer>
		<layer id="306" name="1264912653_const" type="Const" version="opset1">
			<data element_type="f16" offset="66478" shape="" size="2"/>
			<output>
				<port id="0" precision="FP16"/>
			</output>
		</layer>
		<layer id="307" name="1265012654_const" type="Const" version="opset1">
			<data element_type="f16" offset="66480" shape="" size="2"/>
			<output>
				<port id="0" precision="FP16"/>
			</output>
		</layer>
		<layer id="308" name="Add_59/fq_input_0" type="FakeQuantize" version="opset1">
			<data auto_broadcast="numpy" levels="256"/>
			<input>
				<port id="0">
					<dim>1</dim>
					<dim>32</dim>
					<dim>32</dim>
					<dim>56</dim>
				</port>
				<port id="1"/>
				<port id="2"/>
				<port id="3"/>
				<port id="4"/>
			</input>
			<output>
				<port id="5" precision="FP16">
					<dim>1</dim>
					<dim>32</dim>
					<dim>32</dim>
					<dim>56</dim>
				</port>
			</output>
		</layer>
		<layer id="309" name="Add_59" type="Add" version="opset1">
			<data auto_broadcast="numpy"/>
			<input>
				<port id="0">
					<dim>1</dim>
					<dim>32</dim>
					<dim>32</dim>
					<dim>56</dim>
				</port>
				<port id="1">
					<dim>1</dim>
					<dim>32</dim>
					<dim>32</dim>
					<dim>56</dim>
				</port>
			</input>
			<output>
				<port id="2" names="423" precision="FP16">
					<dim>1</dim>
					<dim>32</dim>
					<dim>32</dim>
					<dim>56</dim>
				</port>
			</output>
		</layer>
		<layer id="310" name="1255712561_const" type="Const" version="opset1">
			<data element_type="f16" offset="66482" shape="" size="2"/>
			<output>
				<port id="0" precision="FP16"/>
			</output>
		</layer>
		<layer id="311" name="1255812562_const" type="Const" version="opset1">
			<data element_type="f16" offset="66484" shape="" size="2"/>
			<output>
				<port id="0" precision="FP16"/>
			</output>
		</layer>
		<layer id="312" name="1255912563_const" type="Const" version="opset1">
			<data element_type="f16" offset="66482" shape="" size="2"/>
			<output>
				<port id="0" precision="FP16"/>
			</output>
		</layer>
		<layer id="313" name="1256012564_const" type="Const" version="opset1">
			<data element_type="f16" offset="66484" shape="" size="2"/>
			<output>
				<port id="0" precision="FP16"/>
			</output>
		</layer>
		<layer id="314" name="Conv_155/WithoutBiases/fq_input_0" type="FakeQuantize" version="opset1">
			<data auto_broadcast="numpy" levels="256"/>
			<input>
				<port id="0">
					<dim>1</dim>
					<dim>32</dim>
					<dim>32</dim>
					<dim>56</dim>
				</port>
				<port id="1"/>
				<port id="2"/>
				<port id="3"/>
				<port id="4"/>
			</input>
			<output>
				<port id="5" precision="FP16">
					<dim>1</dim>
					<dim>32</dim>
					<dim>32</dim>
					<dim>56</dim>
				</port>
			</output>
		</layer>
		<layer id="315" name="neck.lateral_convs.0.conv.weight/quantized24339_const" type="Const" version="opset1">
			<data element_type="i8" offset="66486" shape="32,32,1,1" size="1024"/>
			<output>
				<port id="0" precision="I8">
					<dim>32</dim>
					<dim>32</dim>
					<dim>1</dim>
					<dim>1</dim>
				</port>
			</output>
		</layer>
		<layer id="316" name="neck.lateral_convs.0.conv.weight/quantized/to_f16" type="Convert" version="opset1">
			<data destination_type="f16"/>
			<input>
				<port id="0">
					<dim>32</dim>
					<dim>32</dim>
					<dim>1</dim>
					<dim>1</dim>
				</port>
			</input>
			<output>
				<port id="1" precision="FP16">
					<dim>32</dim>
					<dim>32</dim>
					<dim>1</dim>
					<dim>1</dim>
				</port>
			</output>
		</layer>
		<layer id="317" name="Conv_155/WithoutBiases/fq_weights_1/zero_point24352_const" type="Const" version="opset1">
			<data element_type="f16" offset="67510" shape="32,1,1,1" size="64"/>
			<output>
				<port id="0" precision="FP16">
					<dim>32</dim>
					<dim>1</dim>
					<dim>1</dim>
					<dim>1</dim>
				</port>
			</output>
		</layer>
		<layer id="318" name="Conv_155/WithoutBiases/fq_weights_1/minus_zp" type="Subtract" version="opset1">
			<data auto_broadcast="numpy"/>
			<input>
				<port id="0">
					<dim>32</dim>
					<dim>32</dim>
					<dim>1</dim>
					<dim>1</dim>
				</port>
				<port id="1">
					<dim>32</dim>
					<dim>1</dim>
					<dim>1</dim>
					<dim>1</dim>
				</port>
			</input>
			<output>
				<port id="2" precision="FP16">
					<dim>32</dim>
					<dim>32</dim>
					<dim>1</dim>
					<dim>1</dim>
				</port>
			</output>
		</layer>
		<layer id="319" name="Conv_155/WithoutBiases/fq_weights_1/scale24347_const" type="Const" version="opset1">
			<data element_type="f16" offset="67574" shape="32,1,1,1" size="64"/>
			<output>
				<port id="0" precision="FP16">
					<dim>32</dim>
					<dim>1</dim>
					<dim>1</dim>
					<dim>1</dim>
				</port>
			</output>
		</layer>
		<layer id="320" name="Conv_155/WithoutBiases/fq_weights_1/mulpiply_by_scale" type="Multiply" version="opset1">
			<data auto_broadcast="numpy"/>
			<input>
				<port id="0">
					<dim>32</dim>
					<dim>32</dim>
					<dim>1</dim>
					<dim>1</dim>
				</port>
				<port id="1">
					<dim>32</dim>
					<dim>1</dim>
					<dim>1</dim>
					<dim>1</dim>
				</port>
			</input>
			<output>
				<port id="2" precision="FP16">
					<dim>32</dim>
					<dim>32</dim>
					<dim>1</dim>
					<dim>1</dim>
				</port>
			</output>
		</layer>
		<layer id="321" name="Conv_155/WithoutBiases" type="Convolution" version="opset1">
			<data auto_pad="explicit" dilations="1,1" pads_begin="0,0" pads_end="0,0" strides="1,1"/>
			<input>
				<port id="0">
					<dim>1</dim>
					<dim>32</dim>
					<dim>32</dim>
					<dim>56</dim>
				</port>
				<port id="1">
					<dim>32</dim>
					<dim>32</dim>
					<dim>1</dim>
					<dim>1</dim>
				</port>
			</input>
			<output>
				<port id="2" precision="FP16">
					<dim>1</dim>
					<dim>32</dim>
					<dim>32</dim>
					<dim>56</dim>
				</port>
			</output>
		</layer>
		<layer id="322" name="Conv_155/Dims2833948741/EltwiseUnsqueeze49436_const3131_const" type="Const" version="opset1">
			<data element_type="f16" offset="67638" shape="1,32,1,1" size="64"/>
			<output>
				<port id="0" precision="FP16">
					<dim>1</dim>
					<dim>32</dim>
					<dim>1</dim>
					<dim>1</dim>
				</port>
			</output>
		</layer>
		<layer id="323" name="Conv_155" type="Add" version="opset1">
			<data auto_broadcast="numpy"/>
			<input>
				<port id="0">
					<dim>1</dim>
					<dim>32</dim>
					<dim>32</dim>
					<dim>56</dim>
				</port>
				<port id="1">
					<dim>1</dim>
					<dim>32</dim>
					<dim>1</dim>
					<dim>1</dim>
				</port>
			</input>
			<output>
				<port id="2" names="519" precision="FP16">
					<dim>1</dim>
					<dim>32</dim>
					<dim>32</dim>
					<dim>56</dim>
				</port>
			</output>
		</layer>
		<layer id="324" name="1232712331_const" type="Const" version="opset1">
			<data element_type="f16" offset="67702" shape="" size="2"/>
			<output>
				<port id="0" precision="FP16"/>
			</output>
		</layer>
		<layer id="325" name="1232812332_const" type="Const" version="opset1">
			<data element_type="f16" offset="49574" shape="" size="2"/>
			<output>
				<port id="0" precision="FP16"/>
			</output>
		</layer>
		<layer id="326" name="1232912333_const" type="Const" version="opset1">
			<data element_type="f16" offset="67702" shape="" size="2"/>
			<output>
				<port id="0" precision="FP16"/>
			</output>
		</layer>
		<layer id="327" name="1233012334_const" type="Const" version="opset1">
			<data element_type="f16" offset="49574" shape="" size="2"/>
			<output>
				<port id="0" precision="FP16"/>
			</output>
		</layer>
		<layer id="328" name="Add_199/fq_input_0" type="FakeQuantize" version="opset1">
			<data auto_broadcast="numpy" levels="256"/>
			<input>
				<port id="0">
					<dim>1</dim>
					<dim>32</dim>
					<dim>32</dim>
					<dim>56</dim>
				</port>
				<port id="1"/>
				<port id="2"/>
				<port id="3"/>
				<port id="4"/>
			</input>
			<output>
				<port id="5" precision="FP16">
					<dim>1</dim>
					<dim>32</dim>
					<dim>32</dim>
					<dim>56</dim>
				</port>
			</output>
		</layer>
		<layer id="329" name="BatchNormalization_61/mean/Fused_Mul_5152551527_const313320496/quantized23667_const" type="Const" version="opset1">
			<data element_type="i8" offset="67704" shape="192,32,1,1" size="6144"/>
			<output>
				<port id="0" precision="I8">
					<dim>192</dim>
					<dim>32</dim>
					<dim>1</dim>
					<dim>1</dim>
				</port>
			</output>
		</layer>
		<layer id="330" name="BatchNormalization_61/mean/Fused_Mul_5152551527_const313320496/quantized/to_f16" type="Convert" version="opset1">
			<data destination_type="f16"/>
			<input>
				<port id="0">
					<dim>192</dim>
					<dim>32</dim>
					<dim>1</dim>
					<dim>1</dim>
				</port>
			</input>
			<output>
				<port id="1" precision="FP16">
					<dim>192</dim>
					<dim>32</dim>
					<dim>1</dim>
					<dim>1</dim>
				</port>
			</output>
		</layer>
		<layer id="331" name="Conv_60/fq_weights_1/zero_point23680_const" type="Const" version="opset1">
			<data element_type="f16" offset="73848" shape="192,1,1,1" size="384"/>
			<output>
				<port id="0" precision="FP16">
					<dim>192</dim>
					<dim>1</dim>
					<dim>1</dim>
					<dim>1</dim>
				</port>
			</output>
		</layer>
		<layer id="332" name="Conv_60/fq_weights_1/minus_zp" type="Subtract" version="opset1">
			<data auto_broadcast="numpy"/>
			<input>
				<port id="0">
					<dim>192</dim>
					<dim>32</dim>
					<dim>1</dim>
					<dim>1</dim>
				</port>
				<port id="1">
					<dim>192</dim>
					<dim>1</dim>
					<dim>1</dim>
					<dim>1</dim>
				</port>
			</input>
			<output>
				<port id="2" precision="FP16">
					<dim>192</dim>
					<dim>32</dim>
					<dim>1</dim>
					<dim>1</dim>
				</port>
			</output>
		</layer>
		<layer id="333" name="Conv_60/fq_weights_1/scale23675_const" type="Const" version="opset1">
			<data element_type="f16" offset="74232" shape="192,1,1,1" size="384"/>
			<output>
				<port id="0" precision="FP16">
					<dim>192</dim>
					<dim>1</dim>
					<dim>1</dim>
					<dim>1</dim>
				</port>
			</output>
		</layer>
		<layer id="334" name="Conv_60/fq_weights_1/mulpiply_by_scale" type="Multiply" version="opset1">
			<data auto_broadcast="numpy"/>
			<input>
				<port id="0">
					<dim>192</dim>
					<dim>32</dim>
					<dim>1</dim>
					<dim>1</dim>
				</port>
				<port id="1">
					<dim>192</dim>
					<dim>1</dim>
					<dim>1</dim>
					<dim>1</dim>
				</port>
			</input>
			<output>
				<port id="2" precision="FP16">
					<dim>192</dim>
					<dim>32</dim>
					<dim>1</dim>
					<dim>1</dim>
				</port>
			</output>
		</layer>
		<layer id="335" name="Conv_60" type="Convolution" version="opset1">
			<data auto_pad="explicit" dilations="1,1" pads_begin="0,0" pads_end="0,0" strides="1,1"/>
			<input>
				<port id="0">
					<dim>1</dim>
					<dim>32</dim>
					<dim>32</dim>
					<dim>56</dim>
				</port>
				<port id="1">
					<dim>192</dim>
					<dim>32</dim>
					<dim>1</dim>
					<dim>1</dim>
				</port>
			</input>
			<output>
				<port id="2" precision="FP16">
					<dim>1</dim>
					<dim>192</dim>
					<dim>32</dim>
					<dim>56</dim>
				</port>
			</output>
		</layer>
		<layer id="336" name="data_add_472044720948884/EltwiseUnsqueeze49688_const3135_const" type="Const" version="opset1">
			<data element_type="f16" offset="74616" shape="1,192,1,1" size="384"/>
			<output>
				<port id="0" precision="FP16">
					<dim>1</dim>
					<dim>192</dim>
					<dim>1</dim>
					<dim>1</dim>
				</port>
			</output>
		</layer>
		<layer id="337" name="BatchNormalization_61/variance/Fused_Add_" type="Add" version="opset1">
			<data auto_broadcast="numpy"/>
			<input>
				<port id="0">
					<dim>1</dim>
					<dim>192</dim>
					<dim>32</dim>
					<dim>56</dim>
				</port>
				<port id="1">
					<dim>1</dim>
					<dim>192</dim>
					<dim>1</dim>
					<dim>1</dim>
				</port>
			</input>
			<output>
				<port id="2" names="425" precision="FP16">
					<dim>1</dim>
					<dim>192</dim>
					<dim>32</dim>
					<dim>56</dim>
				</port>
			</output>
		</layer>
		<layer id="338" name="Clip_62" type="Clamp" version="opset1">
			<data max="6.0" min="0.0"/>
			<input>
				<port id="0">
					<dim>1</dim>
					<dim>192</dim>
					<dim>32</dim>
					<dim>56</dim>
				</port>
			</input>
			<output>
				<port id="1" names="426" precision="FP16">
					<dim>1</dim>
					<dim>192</dim>
					<dim>32</dim>
					<dim>56</dim>
				</port>
			</output>
		</layer>
		<layer id="339" name="1063710641_const" type="Const" version="opset1">
			<data element_type="f16" offset="39546" shape="1,192,1,1" size="384"/>
			<output>
				<port id="0" precision="FP16">
					<dim>1</dim>
					<dim>192</dim>
					<dim>1</dim>
					<dim>1</dim>
				</port>
			</output>
		</layer>
		<layer id="340" name="1063810642_const" type="Const" version="opset1">
			<data element_type="f16" offset="75000" shape="1,192,1,1" size="384"/>
			<output>
				<port id="0" precision="FP16">
					<dim>1</dim>
					<dim>192</dim>
					<dim>1</dim>
					<dim>1</dim>
				</port>
			</output>
		</layer>
		<layer id="341" name="1063910643_const" type="Const" version="opset1">
			<data element_type="f16" offset="39546" shape="1,192,1,1" size="384"/>
			<output>
				<port id="0" precision="FP16">
					<dim>1</dim>
					<dim>192</dim>
					<dim>1</dim>
					<dim>1</dim>
				</port>
			</output>
		</layer>
		<layer id="342" name="1064010644_const" type="Const" version="opset1">
			<data element_type="f16" offset="75000" shape="1,192,1,1" size="384"/>
			<output>
				<port id="0" precision="FP16">
					<dim>1</dim>
					<dim>192</dim>
					<dim>1</dim>
					<dim>1</dim>
				</port>
			</output>
		</layer>
		<layer id="343" name="Conv_63/fq_input_0" type="FakeQuantize" version="opset1">
			<data auto_broadcast="numpy" levels="256"/>
			<input>
				<port id="0">
					<dim>1</dim>
					<dim>192</dim>
					<dim>32</dim>
					<dim>56</dim>
				</port>
				<port id="1">
					<dim>1</dim>
					<dim>192</dim>
					<dim>1</dim>
					<dim>1</dim>
				</port>
				<port id="2">
					<dim>1</dim>
					<dim>192</dim>
					<dim>1</dim>
					<dim>1</dim>
				</port>
				<port id="3">
					<dim>1</dim>
					<dim>192</dim>
					<dim>1</dim>
					<dim>1</dim>
				</port>
				<port id="4">
					<dim>1</dim>
					<dim>192</dim>
					<dim>1</dim>
					<dim>1</dim>
				</port>
			</input>
			<output>
				<port id="5" precision="FP16">
					<dim>1</dim>
					<dim>192</dim>
					<dim>32</dim>
					<dim>56</dim>
				</port>
			</output>
		</layer>
		<layer id="344" name="101661101664_const313820498/quantized24267_const" type="Const" version="opset1">
			<data element_type="i8" offset="75384" shape="192,1,3,3" size="1728"/>
			<output>
				<port id="0" precision="I8">
					<dim>192</dim>
					<dim>1</dim>
					<dim>3</dim>
					<dim>3</dim>
				</port>
			</output>
		</layer>
		<layer id="345" name="101661101664_const313820498/quantized/to_f16" type="Convert" version="opset1">
			<data destination_type="f16"/>
			<input>
				<port id="0">
					<dim>192</dim>
					<dim>1</dim>
					<dim>3</dim>
					<dim>3</dim>
				</port>
			</input>
			<output>
				<port id="1" precision="FP16">
					<dim>192</dim>
					<dim>1</dim>
					<dim>3</dim>
					<dim>3</dim>
				</port>
			</output>
		</layer>
		<layer id="346" name="Conv_63/fq_weights_1/zero_point24280_const" type="Const" version="opset1">
			<data element_type="f16" offset="77112" shape="192,1,1,1" size="384"/>
			<output>
				<port id="0" precision="FP16">
					<dim>192</dim>
					<dim>1</dim>
					<dim>1</dim>
					<dim>1</dim>
				</port>
			</output>
		</layer>
		<layer id="347" name="Conv_63/fq_weights_1/minus_zp" type="Subtract" version="opset1">
			<data auto_broadcast="numpy"/>
			<input>
				<port id="0">
					<dim>192</dim>
					<dim>1</dim>
					<dim>3</dim>
					<dim>3</dim>
				</port>
				<port id="1">
					<dim>192</dim>
					<dim>1</dim>
					<dim>1</dim>
					<dim>1</dim>
				</port>
			</input>
			<output>
				<port id="2" precision="FP16">
					<dim>192</dim>
					<dim>1</dim>
					<dim>3</dim>
					<dim>3</dim>
				</port>
			</output>
		</layer>
		<layer id="348" name="Conv_63/fq_weights_1/scale24275_const" type="Const" version="opset1">
			<data element_type="f16" offset="77496" shape="192,1,1,1" size="384"/>
			<output>
				<port id="0" precision="FP16">
					<dim>192</dim>
					<dim>1</dim>
					<dim>1</dim>
					<dim>1</dim>
				</port>
			</output>
		</layer>
		<layer id="349" name="Conv_63/fq_weights_1/mulpiply_by_scale" type="Multiply" version="opset1">
			<data auto_broadcast="numpy"/>
			<input>
				<port id="0">
					<dim>192</dim>
					<dim>1</dim>
					<dim>3</dim>
					<dim>3</dim>
				</port>
				<port id="1">
					<dim>192</dim>
					<dim>1</dim>
					<dim>1</dim>
					<dim>1</dim>
				</port>
			</input>
			<output>
				<port id="2" precision="FP16">
					<dim>192</dim>
					<dim>1</dim>
					<dim>3</dim>
					<dim>3</dim>
				</port>
			</output>
		</layer>
		<layer id="350" name="30994/value30996_const" type="Const" version="opset1">
			<data element_type="i64" offset="42810" shape="5" size="40"/>
			<output>
				<port id="0" precision="I64">
					<dim>5</dim>
				</port>
			</output>
		</layer>
		<layer id="351" name="30994" type="Reshape" version="opset1">
			<data special_zero="true"/>
			<input>
				<port id="0">
					<dim>192</dim>
					<dim>1</dim>
					<dim>3</dim>
					<dim>3</dim>
				</port>
				<port id="1">
					<dim>5</dim>
				</port>
			</input>
			<output>
				<port id="2" precision="FP16">
					<dim>192</dim>
					<dim>1</dim>
					<dim>1</dim>
					<dim>3</dim>
					<dim>3</dim>
				</port>
			</output>
		</layer>
		<layer id="352" name="Conv_63" type="GroupConvolution" version="opset1">
			<data auto_pad="explicit" dilations="1,1" pads_begin="1,1" pads_end="1,1" strides="2,2"/>
			<input>
				<port id="0">
					<dim>1</dim>
					<dim>192</dim>
					<dim>32</dim>
					<dim>56</dim>
				</port>
				<port id="1">
					<dim>192</dim>
					<dim>1</dim>
					<dim>1</dim>
					<dim>3</dim>
					<dim>3</dim>
				</port>
			</input>
			<output>
				<port id="2" precision="FP16">
					<dim>1</dim>
					<dim>192</dim>
					<dim>16</dim>
					<dim>28</dim>
				</port>
			</output>
		</layer>
		<layer id="353" name="data_add_472124721748886/EltwiseUnsqueeze49696_const3140_const" type="Const" version="opset1">
			<data element_type="f16" offset="77880" shape="1,192,1,1" size="384"/>
			<output>
				<port id="0" precision="FP16">
					<dim>1</dim>
					<dim>192</dim>
					<dim>1</dim>
					<dim>1</dim>
				</port>
			</output>
		</layer>
		<layer id="354" name="BatchNormalization_64/variance/Fused_Add_" type="Add" version="opset1">
			<data auto_broadcast="numpy"/>
			<input>
				<port id="0">
					<dim>1</dim>
					<dim>192</dim>
					<dim>16</dim>
					<dim>28</dim>
				</port>
				<port id="1">
					<dim>1</dim>
					<dim>192</dim>
					<dim>1</dim>
					<dim>1</dim>
				</port>
			</input>
			<output>
				<port id="2" names="428" precision="FP16">
					<dim>1</dim>
					<dim>192</dim>
					<dim>16</dim>
					<dim>28</dim>
				</port>
			</output>
		</layer>
		<layer id="355" name="Clip_65" type="Clamp" version="opset1">
			<data max="6.0" min="0.0"/>
			<input>
				<port id="0">
					<dim>1</dim>
					<dim>192</dim>
					<dim>16</dim>
					<dim>28</dim>
				</port>
			</input>
			<output>
				<port id="1" names="429" precision="FP16">
					<dim>1</dim>
					<dim>192</dim>
					<dim>16</dim>
					<dim>28</dim>
				</port>
			</output>
		</layer>
		<layer id="356" name="1159711601_const" type="Const" version="opset1">
			<data element_type="f16" offset="0" shape="" size="2"/>
			<output>
				<port id="0" precision="FP16"/>
			</output>
		</layer>
		<layer id="357" name="1159811602_const" type="Const" version="opset1">
			<data element_type="f16" offset="78264" shape="" size="2"/>
			<output>
				<port id="0" precision="FP16"/>
			</output>
		</layer>
		<layer id="358" name="1159911603_const" type="Const" version="opset1">
			<data element_type="f16" offset="0" shape="" size="2"/>
			<output>
				<port id="0" precision="FP16"/>
			</output>
		</layer>
		<layer id="359" name="1160011604_const" type="Const" version="opset1">
			<data element_type="f16" offset="78264" shape="" size="2"/>
			<output>
				<port id="0" precision="FP16"/>
			</output>
		</layer>
		<layer id="360" name="Conv_66/fq_input_0" type="FakeQuantize" version="opset1">
			<data auto_broadcast="numpy" levels="256"/>
			<input>
				<port id="0">
					<dim>1</dim>
					<dim>192</dim>
					<dim>16</dim>
					<dim>28</dim>
				</port>
				<port id="1"/>
				<port id="2"/>
				<port id="3"/>
				<port id="4"/>
			</input>
			<output>
				<port id="5" precision="FP16">
					<dim>1</dim>
					<dim>192</dim>
					<dim>16</dim>
					<dim>28</dim>
				</port>
			</output>
		</layer>
		<layer id="361" name="BatchNormalization_67/mean/Fused_Mul_5153351535_const314320500/quantized24075_const" type="Const" version="opset1">
			<data element_type="i8" offset="78266" shape="64,192,1,1" size="12288"/>
			<output>
				<port id="0" precision="I8">
					<dim>64</dim>
					<dim>192</dim>
					<dim>1</dim>
					<dim>1</dim>
				</port>
			</output>
		</layer>
		<layer id="362" name="BatchNormalization_67/mean/Fused_Mul_5153351535_const314320500/quantized/to_f16" type="Convert" version="opset1">
			<data destination_type="f16"/>
			<input>
				<port id="0">
					<dim>64</dim>
					<dim>192</dim>
					<dim>1</dim>
					<dim>1</dim>
				</port>
			</input>
			<output>
				<port id="1" precision="FP16">
					<dim>64</dim>
					<dim>192</dim>
					<dim>1</dim>
					<dim>1</dim>
				</port>
			</output>
		</layer>
		<layer id="363" name="Conv_66/fq_weights_1/zero_point24088_const" type="Const" version="opset1">
			<data element_type="f16" offset="90554" shape="64,1,1,1" size="128"/>
			<output>
				<port id="0" precision="FP16">
					<dim>64</dim>
					<dim>1</dim>
					<dim>1</dim>
					<dim>1</dim>
				</port>
			</output>
		</layer>
		<layer id="364" name="Conv_66/fq_weights_1/minus_zp" type="Subtract" version="opset1">
			<data auto_broadcast="numpy"/>
			<input>
				<port id="0">
					<dim>64</dim>
					<dim>192</dim>
					<dim>1</dim>
					<dim>1</dim>
				</port>
				<port id="1">
					<dim>64</dim>
					<dim>1</dim>
					<dim>1</dim>
					<dim>1</dim>
				</port>
			</input>
			<output>
				<port id="2" precision="FP16">
					<dim>64</dim>
					<dim>192</dim>
					<dim>1</dim>
					<dim>1</dim>
				</port>
			</output>
		</layer>
		<layer id="365" name="Conv_66/fq_weights_1/scale24083_const" type="Const" version="opset1">
			<data element_type="f16" offset="90682" shape="64,1,1,1" size="128"/>
			<output>
				<port id="0" precision="FP16">
					<dim>64</dim>
					<dim>1</dim>
					<dim>1</dim>
					<dim>1</dim>
				</port>
			</output>
		</layer>
		<layer id="366" name="Conv_66/fq_weights_1/mulpiply_by_scale" type="Multiply" version="opset1">
			<data auto_broadcast="numpy"/>
			<input>
				<port id="0">
					<dim>64</dim>
					<dim>192</dim>
					<dim>1</dim>
					<dim>1</dim>
				</port>
				<port id="1">
					<dim>64</dim>
					<dim>1</dim>
					<dim>1</dim>
					<dim>1</dim>
				</port>
			</input>
			<output>
				<port id="2" precision="FP16">
					<dim>64</dim>
					<dim>192</dim>
					<dim>1</dim>
					<dim>1</dim>
				</port>
			</output>
		</layer>
		<layer id="367" name="Conv_66" type="Convolution" version="opset1">
			<data auto_pad="explicit" dilations="1,1" pads_begin="0,0" pads_end="0,0" strides="1,1"/>
			<input>
				<port id="0">
					<dim>1</dim>
					<dim>192</dim>
					<dim>16</dim>
					<dim>28</dim>
				</port>
				<port id="1">
					<dim>64</dim>
					<dim>192</dim>
					<dim>1</dim>
					<dim>1</dim>
				</port>
			</input>
			<output>
				<port id="2" precision="FP16">
					<dim>1</dim>
					<dim>64</dim>
					<dim>16</dim>
					<dim>28</dim>
				</port>
			</output>
		</layer>
		<layer id="368" name="data_add_472204722548888/EltwiseUnsqueeze49704_const3145_const" type="Const" version="opset1">
			<data element_type="f16" offset="90810" shape="1,64,1,1" size="128"/>
			<output>
				<port id="0" precision="FP16">
					<dim>1</dim>
					<dim>64</dim>
					<dim>1</dim>
					<dim>1</dim>
				</port>
			</output>
		</layer>
		<layer id="369" name="BatchNormalization_67/variance/Fused_Add_" type="Add" version="opset1">
			<data auto_broadcast="numpy"/>
			<input>
				<port id="0">
					<dim>1</dim>
					<dim>64</dim>
					<dim>16</dim>
					<dim>28</dim>
				</port>
				<port id="1">
					<dim>1</dim>
					<dim>64</dim>
					<dim>1</dim>
					<dim>1</dim>
				</port>
			</input>
			<output>
				<port id="2" names="431" precision="FP16">
					<dim>1</dim>
					<dim>64</dim>
					<dim>16</dim>
					<dim>28</dim>
				</port>
			</output>
		</layer>
		<layer id="370" name="1208712091_const" type="Const" version="opset1">
			<data element_type="f16" offset="90938" shape="" size="2"/>
			<output>
				<port id="0" precision="FP16"/>
			</output>
		</layer>
		<layer id="371" name="1208812092_const" type="Const" version="opset1">
			<data element_type="f16" offset="90940" shape="" size="2"/>
			<output>
				<port id="0" precision="FP16"/>
			</output>
		</layer>
		<layer id="372" name="1208912093_const" type="Const" version="opset1">
			<data element_type="f16" offset="90938" shape="" size="2"/>
			<output>
				<port id="0" precision="FP16"/>
			</output>
		</layer>
		<layer id="373" name="1209012094_const" type="Const" version="opset1">
			<data element_type="f16" offset="90940" shape="" size="2"/>
			<output>
				<port id="0" precision="FP16"/>
			</output>
		</layer>
		<layer id="374" name="Add_76/fq_input_1" type="FakeQuantize" version="opset1">
			<data auto_broadcast="numpy" levels="256"/>
			<input>
				<port id="0">
					<dim>1</dim>
					<dim>64</dim>
					<dim>16</dim>
					<dim>28</dim>
				</port>
				<port id="1"/>
				<port id="2"/>
				<port id="3"/>
				<port id="4"/>
			</input>
			<output>
				<port id="5" precision="FP16">
					<dim>1</dim>
					<dim>64</dim>
					<dim>16</dim>
					<dim>28</dim>
				</port>
			</output>
		</layer>
		<layer id="375" name="BatchNormalization_69/mean/Fused_Mul_5153751539_const314720502/quantized23115_const" type="Const" version="opset1">
			<data element_type="i8" offset="90942" shape="384,64,1,1" size="24576"/>
			<output>
				<port id="0" precision="I8">
					<dim>384</dim>
					<dim>64</dim>
					<dim>1</dim>
					<dim>1</dim>
				</port>
			</output>
		</layer>
		<layer id="376" name="BatchNormalization_69/mean/Fused_Mul_5153751539_const314720502/quantized/to_f16" type="Convert" version="opset1">
			<data destination_type="f16"/>
			<input>
				<port id="0">
					<dim>384</dim>
					<dim>64</dim>
					<dim>1</dim>
					<dim>1</dim>
				</port>
			</input>
			<output>
				<port id="1" precision="FP16">
					<dim>384</dim>
					<dim>64</dim>
					<dim>1</dim>
					<dim>1</dim>
				</port>
			</output>
		</layer>
		<layer id="377" name="Conv_68/fq_weights_1/zero_point23128_const" type="Const" version="opset1">
			<data element_type="f16" offset="115518" shape="384,1,1,1" size="768"/>
			<output>
				<port id="0" precision="FP16">
					<dim>384</dim>
					<dim>1</dim>
					<dim>1</dim>
					<dim>1</dim>
				</port>
			</output>
		</layer>
		<layer id="378" name="Conv_68/fq_weights_1/minus_zp" type="Subtract" version="opset1">
			<data auto_broadcast="numpy"/>
			<input>
				<port id="0">
					<dim>384</dim>
					<dim>64</dim>
					<dim>1</dim>
					<dim>1</dim>
				</port>
				<port id="1">
					<dim>384</dim>
					<dim>1</dim>
					<dim>1</dim>
					<dim>1</dim>
				</port>
			</input>
			<output>
				<port id="2" precision="FP16">
					<dim>384</dim>
					<dim>64</dim>
					<dim>1</dim>
					<dim>1</dim>
				</port>
			</output>
		</layer>
		<layer id="379" name="Conv_68/fq_weights_1/scale23123_const" type="Const" version="opset1">
			<data element_type="f16" offset="116286" shape="384,1,1,1" size="768"/>
			<output>
				<port id="0" precision="FP16">
					<dim>384</dim>
					<dim>1</dim>
					<dim>1</dim>
					<dim>1</dim>
				</port>
			</output>
		</layer>
		<layer id="380" name="Conv_68/fq_weights_1/mulpiply_by_scale" type="Multiply" version="opset1">
			<data auto_broadcast="numpy"/>
			<input>
				<port id="0">
					<dim>384</dim>
					<dim>64</dim>
					<dim>1</dim>
					<dim>1</dim>
				</port>
				<port id="1">
					<dim>384</dim>
					<dim>1</dim>
					<dim>1</dim>
					<dim>1</dim>
				</port>
			</input>
			<output>
				<port id="2" precision="FP16">
					<dim>384</dim>
					<dim>64</dim>
					<dim>1</dim>
					<dim>1</dim>
				</port>
			</output>
		</layer>
		<layer id="381" name="Conv_68" type="Convolution" version="opset1">
			<data auto_pad="explicit" dilations="1,1" pads_begin="0,0" pads_end="0,0" strides="1,1"/>
			<input>
				<port id="0">
					<dim>1</dim>
					<dim>64</dim>
					<dim>16</dim>
					<dim>28</dim>
				</port>
				<port id="1">
					<dim>384</dim>
					<dim>64</dim>
					<dim>1</dim>
					<dim>1</dim>
				</port>
			</input>
			<output>
				<port id="2" precision="FP16">
					<dim>1</dim>
					<dim>384</dim>
					<dim>16</dim>
					<dim>28</dim>
				</port>
			</output>
		</layer>
		<layer id="382" name="data_add_472284723348890/EltwiseUnsqueeze49712_const3149_const" type="Const" version="opset1">
			<data element_type="f16" offset="117054" shape="1,384,1,1" size="768"/>
			<output>
				<port id="0" precision="FP16">
					<dim>1</dim>
					<dim>384</dim>
					<dim>1</dim>
					<dim>1</dim>
				</port>
			</output>
		</layer>
		<layer id="383" name="BatchNormalization_69/variance/Fused_Add_" type="Add" version="opset1">
			<data auto_broadcast="numpy"/>
			<input>
				<port id="0">
					<dim>1</dim>
					<dim>384</dim>
					<dim>16</dim>
					<dim>28</dim>
				</port>
				<port id="1">
					<dim>1</dim>
					<dim>384</dim>
					<dim>1</dim>
					<dim>1</dim>
				</port>
			</input>
			<output>
				<port id="2" names="433" precision="FP16">
					<dim>1</dim>
					<dim>384</dim>
					<dim>16</dim>
					<dim>28</dim>
				</port>
			</output>
		</layer>
		<layer id="384" name="Clip_70" type="Clamp" version="opset1">
			<data max="6.0" min="0.0"/>
			<input>
				<port id="0">
					<dim>1</dim>
					<dim>384</dim>
					<dim>16</dim>
					<dim>28</dim>
				</port>
			</input>
			<output>
				<port id="1" names="434" precision="FP16">
					<dim>1</dim>
					<dim>384</dim>
					<dim>16</dim>
					<dim>28</dim>
				</port>
			</output>
		</layer>
		<layer id="385" name="1292712931_const" type="Const" version="opset1">
			<data element_type="f16" offset="117822" shape="1,384,1,1" size="768"/>
			<output>
				<port id="0" precision="FP16">
					<dim>1</dim>
					<dim>384</dim>
					<dim>1</dim>
					<dim>1</dim>
				</port>
			</output>
		</layer>
		<layer id="386" name="1292812932_const" type="Const" version="opset1">
			<data element_type="f16" offset="118590" shape="1,384,1,1" size="768"/>
			<output>
				<port id="0" precision="FP16">
					<dim>1</dim>
					<dim>384</dim>
					<dim>1</dim>
					<dim>1</dim>
				</port>
			</output>
		</layer>
		<layer id="387" name="1292912933_const" type="Const" version="opset1">
			<data element_type="f16" offset="117822" shape="1,384,1,1" size="768"/>
			<output>
				<port id="0" precision="FP16">
					<dim>1</dim>
					<dim>384</dim>
					<dim>1</dim>
					<dim>1</dim>
				</port>
			</output>
		</layer>
		<layer id="388" name="1293012934_const" type="Const" version="opset1">
			<data element_type="f16" offset="118590" shape="1,384,1,1" size="768"/>
			<output>
				<port id="0" precision="FP16">
					<dim>1</dim>
					<dim>384</dim>
					<dim>1</dim>
					<dim>1</dim>
				</port>
			</output>
		</layer>
		<layer id="389" name="Conv_71/fq_input_0" type="FakeQuantize" version="opset1">
			<data auto_broadcast="numpy" levels="256"/>
			<input>
				<port id="0">
					<dim>1</dim>
					<dim>384</dim>
					<dim>16</dim>
					<dim>28</dim>
				</port>
				<port id="1">
					<dim>1</dim>
					<dim>384</dim>
					<dim>1</dim>
					<dim>1</dim>
				</port>
				<port id="2">
					<dim>1</dim>
					<dim>384</dim>
					<dim>1</dim>
					<dim>1</dim>
				</port>
				<port id="3">
					<dim>1</dim>
					<dim>384</dim>
					<dim>1</dim>
					<dim>1</dim>
				</port>
				<port id="4">
					<dim>1</dim>
					<dim>384</dim>
					<dim>1</dim>
					<dim>1</dim>
				</port>
			</input>
			<output>
				<port id="5" precision="FP16">
					<dim>1</dim>
					<dim>384</dim>
					<dim>16</dim>
					<dim>28</dim>
				</port>
			</output>
…
		<edge from-layer="3941" from-port="0" to-layer="3942" to-port="1"/>
		<edge from-layer="3937" from-port="2" to-layer="3943" to-port="0"/>
		<edge from-layer="3942" from-port="2" to-layer="3943" to-port="1"/>
		<edge from-layer="3943" from-port="2" to-layer="3945" to-port="0"/>
		<edge from-layer="3944" from-port="0" to-layer="3945" to-port="1"/>
		<edge from-layer="3945" from-port="2" to-layer="3947" to-port="0"/>
		<edge from-layer="3946" from-port="0" to-layer="3947" to-port="1"/>
		<edge from-layer="2881" from-port="4" to-layer="3950" to-port="0"/>
		<edge from-layer="3948" from-port="0" to-layer="3950" to-port="1"/>
		<edge from-layer="3949" from-port="0" to-layer="3950" to-port="2"/>
		<edge from-layer="3950" from-port="3" to-layer="3951" to-port="0"/>
		<edge from-layer="3951" from-port="1" to-layer="3953" to-port="0"/>
		<edge from-layer="3952" from-port="0" to-layer="3953" to-port="1"/>
		<edge from-layer="3945" from-port="2" to-layer="3954" to-port="0"/>
		<edge from-layer="3953" from-port="2" to-layer="3955" to-port="0"/>
		<edge from-layer="3954" from-port="1" to-layer="3955" to-port="1"/>
		<edge from-layer="3955" from-port="2" to-layer="3957" to-port="0"/>
		<edge from-layer="3956" from-port="0" to-layer="3957" to-port="1"/>
		<edge from-layer="3947" from-port="2" to-layer="3958" to-port="0"/>
		<edge from-layer="3957" from-port="2" to-layer="3958" to-port="1"/>
		<edge from-layer="3958" from-port="2" to-layer="3960" to-port="0"/>
		<edge from-layer="3959" from-port="0" to-layer="3960" to-port="1"/>
		<edge from-layer="3960" from-port="2" to-layer="3962" to-port="0"/>
		<edge from-layer="3961" from-port="0" to-layer="3962" to-port="1"/>
		<edge from-layer="3902" from-port="2" to-layer="3964" to-port="0"/>
		<edge from-layer="3963" from-port="0" to-layer="3964" to-port="1"/>
		<edge from-layer="3900" from-port="2" to-layer="3965" to-port="0"/>
		<edge from-layer="3964" from-port="2" to-layer="3965" to-port="1"/>
		<edge from-layer="3965" from-port="2" to-layer="3967" to-port="0"/>
		<edge from-layer="3966" from-port="0" to-layer="3967" to-port="1"/>
		<edge from-layer="3965" from-port="2" to-layer="3969" to-port="0"/>
		<edge from-layer="3968" from-port="0" to-layer="3970" to-port="0"/>
		<edge from-layer="3969" from-port="1" to-layer="3970" to-port="1"/>
		<edge from-layer="3970" from-port="2" to-layer="3972" to-port="0"/>
		<edge from-layer="3971" from-port="0" to-layer="3972" to-port="1"/>
		<edge from-layer="3967" from-port="2" to-layer="3973" to-port="0"/>
		<edge from-layer="3972" from-port="2" to-layer="3973" to-port="1"/>
		<edge from-layer="3973" from-port="2" to-layer="3975" to-port="0"/>
		<edge from-layer="3974" from-port="0" to-layer="3975" to-port="1"/>
		<edge from-layer="3975" from-port="2" to-layer="3977" to-port="0"/>
		<edge from-layer="3976" from-port="0" to-layer="3977" to-port="1"/>
		<edge from-layer="2881" from-port="4" to-layer="3980" to-port="0"/>
		<edge from-layer="3978" from-port="0" to-layer="3980" to-port="1"/>
		<edge from-layer="3979" from-port="0" to-layer="3980" to-port="2"/>
		<edge from-layer="3980" from-port="3" to-layer="3981" to-port="0"/>
		<edge from-layer="3981" from-port="1" to-layer="3983" to-port="0"/>
		<edge from-layer="3982" from-port="0" to-layer="3983" to-port="1"/>
		<edge from-layer="3975" from-port="2" to-layer="3984" to-port="0"/>
		<edge from-layer="3983" from-port="2" to-layer="3985" to-port="0"/>
		<edge from-layer="3984" from-port="1" to-layer="3985" to-port="1"/>
		<edge from-layer="3985" from-port="2" to-layer="3987" to-port="0"/>
		<edge from-layer="3986" from-port="0" to-layer="3987" to-port="1"/>
		<edge from-layer="3977" from-port="2" to-layer="3988" to-port="0"/>
		<edge from-layer="3987" from-port="2" to-layer="3988" to-port="1"/>
		<edge from-layer="3988" from-port="2" to-layer="3990" to-port="0"/>
		<edge from-layer="3989" from-port="0" to-layer="3990" to-port="1"/>
		<edge from-layer="3990" from-port="2" to-layer="3992" to-port="0"/>
		<edge from-layer="3991" from-port="0" to-layer="3992" to-port="1"/>
		<edge from-layer="3865" from-port="2" to-layer="3993" to-port="0"/>
		<edge from-layer="3932" from-port="2" to-layer="3993" to-port="1"/>
		<edge from-layer="3962" from-port="2" to-layer="3993" to-port="2"/>
		<edge from-layer="3992" from-port="2" to-layer="3993" to-port="3"/>
		<edge from-layer="3783" from-port="3" to-layer="3994" to-port="0"/>
		<edge from-layer="3993" from-port="4" to-layer="3995" to-port="0"/>
		<edge from-layer="3994" from-port="1" to-layer="3995" to-port="1"/>
		<edge from-layer="2513" from-port="2" to-layer="3998" to-port="0"/>
		<edge from-layer="3998" from-port="1" to-layer="4001" to-port="0"/>
		<edge from-layer="3999" from-port="0" to-layer="4001" to-port="1"/>
		<edge from-layer="4000" from-port="0" to-layer="4001" to-port="2"/>
		<edge from-layer="4001" from-port="3" to-layer="4003" to-port="0"/>
		<edge from-layer="4002" from-port="0" to-layer="4003" to-port="1"/>
		<edge from-layer="4003" from-port="2" to-layer="4005" to-port="0"/>
		<edge from-layer="4004" from-port="0" to-layer="4005" to-port="1"/>
		<edge from-layer="4005" from-port="2" to-layer="4007" to-port="0"/>
		<edge from-layer="4006" from-port="0" to-layer="4007" to-port="1"/>
		<edge from-layer="3997" from-port="0" to-layer="4008" to-port="0"/>
		<edge from-layer="4007" from-port="2" to-layer="4008" to-port="1"/>
		<edge from-layer="4008" from-port="2" to-layer="4009" to-port="0"/>
		<edge from-layer="4009" from-port="1" to-layer="4011" to-port="0"/>
		<edge from-layer="4010" from-port="0" to-layer="4011" to-port="1"/>
		<edge from-layer="4011" from-port="2" to-layer="4013" to-port="0"/>
		<edge from-layer="4012" from-port="0" to-layer="4013" to-port="1"/>
		<edge from-layer="4013" from-port="2" to-layer="4015" to-port="0"/>
		<edge from-layer="4014" from-port="0" to-layer="4015" to-port="1"/>
		<edge from-layer="4015" from-port="2" to-layer="4017" to-port="0"/>
		<edge from-layer="4016" from-port="0" to-layer="4017" to-port="1"/>
		<edge from-layer="4017" from-port="2" to-layer="4019" to-port="0"/>
		<edge from-layer="4018" from-port="0" to-layer="4019" to-port="1"/>
		<edge from-layer="4019" from-port="2" to-layer="4021" to-port="0"/>
		<edge from-layer="4020" from-port="0" to-layer="4021" to-port="1"/>
		<edge from-layer="4021" from-port="2" to-layer="4023" to-port="0"/>
		<edge from-layer="4022" from-port="0" to-layer="4024" to-port="0"/>
		<edge from-layer="4023" from-port="1" to-layer="4024" to-port="1"/>
		<edge from-layer="4021" from-port="2" to-layer="4025" to-port="0"/>
		<edge from-layer="4024" from-port="2" to-layer="4025" to-port="1"/>
		<edge from-layer="2513" from-port="2" to-layer="4027" to-port="0"/>
		<edge from-layer="4027" from-port="1" to-layer="4030" to-port="0"/>
		<edge from-layer="4028" from-port="0" to-layer="4030" to-port="1"/>
		<edge from-layer="4029" from-port="0" to-layer="4030" to-port="2"/>
		<edge from-layer="4030" from-port="3" to-layer="4032" to-port="0"/>
		<edge from-layer="4031" from-port="0" to-layer="4032" to-port="1"/>
		<edge from-layer="4032" from-port="2" to-layer="4034" to-port="0"/>
		<edge from-layer="4033" from-port="0" to-layer="4034" to-port="1"/>
		<edge from-layer="4034" from-port="2" to-layer="4036" to-port="0"/>
		<edge from-layer="4035" from-port="0" to-layer="4036" to-port="1"/>
		<edge from-layer="4026" from-port="0" to-layer="4037" to-port="0"/>
		<edge from-layer="4036" from-port="2" to-layer="4037" to-port="1"/>
		<edge from-layer="4037" from-port="2" to-layer="4038" to-port="0"/>
		<edge from-layer="4038" from-port="1" to-layer="4040" to-port="0"/>
		<edge from-layer="4039" from-port="0" to-layer="4040" to-port="1"/>
		<edge from-layer="4040" from-port="2" to-layer="4042" to-port="0"/>
		<edge from-layer="4041" from-port="0" to-layer="4042" to-port="1"/>
		<edge from-layer="4042" from-port="2" to-layer="4044" to-port="0"/>
		<edge from-layer="4043" from-port="0" to-layer="4044" to-port="1"/>
		<edge from-layer="4044" from-port="2" to-layer="4046" to-port="0"/>
		<edge from-layer="4045" from-port="0" to-layer="4046" to-port="1"/>
		<edge from-layer="4046" from-port="2" to-layer="4048" to-port="0"/>
		<edge from-layer="4047" from-port="0" to-layer="4048" to-port="1"/>
		<edge from-layer="4048" from-port="2" to-layer="4050" to-port="0"/>
		<edge from-layer="4049" from-port="0" to-layer="4050" to-port="1"/>
		<edge from-layer="4050" from-port="2" to-layer="4051" to-port="0"/>
		<edge from-layer="4051" from-port="1" to-layer="4052" to-port="0"/>
		<edge from-layer="4023" from-port="1" to-layer="4052" to-port="1"/>
		<edge from-layer="4025" from-port="2" to-layer="4053" to-port="0"/>
		<edge from-layer="4052" from-port="2" to-layer="4053" to-port="1"/>
		<edge from-layer="4053" from-port="2" to-layer="4055" to-port="0"/>
		<edge from-layer="4054" from-port="0" to-layer="4055" to-port="1"/>
		<edge from-layer="4051" from-port="1" to-layer="4057" to-port="0"/>
		<edge from-layer="4056" from-port="0" to-layer="4057" to-port="1"/>
		<edge from-layer="4050" from-port="2" to-layer="4058" to-port="0"/>
		<edge from-layer="4057" from-port="2" to-layer="4058" to-port="1"/>
		<edge from-layer="4058" from-port="2" to-layer="4059" to-port="0"/>
		<edge from-layer="4052" from-port="2" to-layer="4059" to-port="1"/>
		<edge from-layer="4059" from-port="2" to-layer="4061" to-port="0"/>
		<edge from-layer="4060" from-port="0" to-layer="4061" to-port="1"/>
		<edge from-layer="4053" from-port="2" to-layer="4063" to-port="0"/>
		<edge from-layer="4062" from-port="0" to-layer="4063" to-port="1"/>
		<edge from-layer="4059" from-port="2" to-layer="4065" to-port="0"/>
		<edge from-layer="4064" from-port="0" to-layer="4065" to-port="1"/>
		<edge from-layer="4055" from-port="2" to-layer="4066" to-port="0"/>
		<edge from-layer="4061" from-port="2" to-layer="4066" to-port="1"/>
		<edge from-layer="4063" from-port="2" to-layer="4066" to-port="2"/>
		<edge from-layer="4065" from-port="2" to-layer="4066" to-port="3"/>
		<edge from-layer="4066" from-port="4" to-layer="4068" to-port="0"/>
		<edge from-layer="4067" from-port="0" to-layer="4068" to-port="1"/>
		<edge from-layer="4068" from-port="2" to-layer="4069" to-port="0"/>
		<edge from-layer="3996" from-port="0" to-layer="4070" to-port="0"/>
		<edge from-layer="4069" from-port="1" to-layer="4070" to-port="1"/>
		<edge from-layer="4070" from-port="2" to-layer="4072" to-port="0"/>
		<edge from-layer="4071" from-port="0" to-layer="4072" to-port="1"/>
		<edge from-layer="2697" from-port="3" to-layer="4073" to-port="0"/>
		<edge from-layer="4073" from-port="1" to-layer="4074" to-port="0"/>
		<edge from-layer="4072" from-port="2" to-layer="4076" to-port="0"/>
		<edge from-layer="4074" from-port="1" to-layer="4076" to-port="1"/>
		<edge from-layer="4075" from-port="0" to-layer="4076" to-port="2"/>
		<edge from-layer="4076" from-port="3" to-layer="4079" to-port="0"/>
		<edge from-layer="4077" from-port="0" to-layer="4079" to-port="1"/>
		<edge from-layer="4078" from-port="0" to-layer="4079" to-port="2"/>
		<edge from-layer="4076" from-port="3" to-layer="4082" to-port="0"/>
		<edge from-layer="4080" from-port="0" to-layer="4082" to-port="1"/>
		<edge from-layer="4081" from-port="0" to-layer="4082" to-port="2"/>
		<edge from-layer="4079" from-port="3" to-layer="4083" to-port="0"/>
		<edge from-layer="4082" from-port="3" to-layer="4083" to-port="1"/>
		<edge from-layer="4083" from-port="2" to-layer="4085" to-port="0"/>
		<edge from-layer="4084" from-port="0" to-layer="4085" to-port="1"/>
		<edge from-layer="4085" from-port="2" to-layer="4087" to-port="0"/>
		<edge from-layer="4086" from-port="0" to-layer="4087" to-port="1"/>
		<edge from-layer="4088" from-port="0" to-layer="4089" to-port="0"/>
		<edge from-layer="4089" from-port="1" to-layer="4091" to-port="0"/>
		<edge from-layer="4090" from-port="0" to-layer="4091" to-port="1"/>
		<edge from-layer="4091" from-port="2" to-layer="4093" to-port="0"/>
		<edge from-layer="4092" from-port="0" to-layer="4093" to-port="1"/>
		<edge from-layer="2649" from-port="5" to-layer="4094" to-port="0"/>
		<edge from-layer="4093" from-port="2" to-layer="4094" to-port="1"/>
		<edge from-layer="4094" from-port="2" to-layer="4096" to-port="0"/>
		<edge from-layer="4095" from-port="0" to-layer="4096" to-port="1"/>
		<edge from-layer="4096" from-port="2" to-layer="4099" to-port="0"/>
		<edge from-layer="4097" from-port="0" to-layer="4099" to-port="1"/>
		<edge from-layer="4098" from-port="0" to-layer="4099" to-port="2"/>
		<edge from-layer="4099" from-port="3" to-layer="4101" to-port="0"/>
		<edge from-layer="4100" from-port="0" to-layer="4101" to-port="1"/>
		<edge from-layer="4101" from-port="2" to-layer="4103" to-port="0"/>
		<edge from-layer="4102" from-port="0" to-layer="4103" to-port="1"/>
		<edge from-layer="4073" from-port="1" to-layer="4104" to-port="0"/>
		<edge from-layer="4103" from-port="2" to-layer="4106" to-port="0"/>
		<edge from-layer="4104" from-port="1" to-layer="4106" to-port="1"/>
		<edge from-layer="4105" from-port="0" to-layer="4106" to-port="2"/>
		<edge from-layer="4106" from-port="3" to-layer="4109" to-port="0"/>
		<edge from-layer="4109" from-port="1" to-layer="4112" to-port="0"/>
		<edge from-layer="4110" from-port="0" to-layer="4112" to-port="1"/>
		<edge from-layer="4111" from-port="0" to-layer="4112" to-port="2"/>
		<edge from-layer="4112" from-port="3" to-layer="4114" to-port="0"/>
		<edge from-layer="4113" from-port="0" to-layer="4114" to-port="1"/>
		<edge from-layer="4114" from-port="2" to-layer="4116" to-port="0"/>
		<edge from-layer="4115" from-port="0" to-layer="4116" to-port="1"/>
		<edge from-layer="4108" from-port="0" to-layer="4117" to-port="0"/>
		<edge from-layer="4116" from-port="2" to-layer="4117" to-port="1"/>
		<edge from-layer="4107" from-port="0" to-layer="4118" to-port="0"/>
		<edge from-layer="4117" from-port="2" to-layer="4118" to-port="1"/>
		<edge from-layer="4106" from-port="3" to-layer="4119" to-port="0"/>
		<edge from-layer="4118" from-port="2" to-layer="4119" to-port="1"/>
		<edge from-layer="4106" from-port="3" to-layer="4122" to-port="0"/>
		<edge from-layer="4122" from-port="1" to-layer="4125" to-port="0"/>
		<edge from-layer="4123" from-port="0" to-layer="4125" to-port="1"/>
		<edge from-layer="4124" from-port="0" to-layer="4125" to-port="2"/>
		<edge from-layer="4125" from-port="3" to-layer="4127" to-port="0"/>
		<edge from-layer="4126" from-port="0" to-layer="4127" to-port="1"/>
		<edge from-layer="4127" from-port="2" to-layer="4129" to-port="0"/>
		<edge from-layer="4128" from-port="0" to-layer="4129" to-port="1"/>
		<edge from-layer="4121" from-port="0" to-layer="4130" to-port="0"/>
		<edge from-layer="4129" from-port="2" to-layer="4130" to-port="1"/>
		<edge from-layer="4120" from-port="0" to-layer="4131" to-port="0"/>
		<edge from-layer="4130" from-port="2" to-layer="4131" to-port="1"/>
		<edge from-layer="4119" from-port="2" to-layer="4132" to-port="0"/>
		<edge from-layer="4131" from-port="2" to-layer="4132" to-port="1"/>
		<edge from-layer="4132" from-port="2" to-layer="4136" to-port="0"/>
		<edge from-layer="4133" from-port="0" to-layer="4136" to-port="1"/>
		<edge from-layer="4134" from-port="0" to-layer="4136" to-port="2"/>
		<edge from-layer="4135" from-port="0" to-layer="4136" to-port="3"/>
		<edge from-layer="4136" from-port="4" to-layer="4137" to-port="0"/>
		<edge from-layer="4087" from-port="2" to-layer="4138" to-port="0"/>
		<edge from-layer="4137" from-port="1" to-layer="4138" to-port="1"/>
		<edge from-layer="4076" from-port="3" to-layer="4141" to-port="0"/>
		<edge from-layer="4139" from-port="0" to-layer="4141" to-port="1"/>
		<edge from-layer="4140" from-port="0" to-layer="4141" to-port="2"/>
		<edge from-layer="4076" from-port="3" to-layer="4144" to-port="0"/>
		<edge from-layer="4142" from-port="0" to-layer="4144" to-port="1"/>
		<edge from-layer="4143" from-port="0" to-layer="4144" to-port="2"/>
		<edge from-layer="4141" from-port="3" to-layer="4145" to-port="0"/>
		<edge from-layer="4144" from-port="3" to-layer="4145" to-port="1"/>
		<edge from-layer="4145" from-port="2" to-layer="4147" to-port="0"/>
		<edge from-layer="4146" from-port="0" to-layer="4147" to-port="1"/>
		<edge from-layer="4132" from-port="2" to-layer="4151" to-port="0"/>
		<edge from-layer="4148" from-port="0" to-layer="4151" to-port="1"/>
		<edge from-layer="4149" from-port="0" to-layer="4151" to-port="2"/>
		<edge from-layer="4150" from-port="0" to-layer="4151" to-port="3"/>
		<edge from-layer="4151" from-port="4" to-layer="4152" to-port="0"/>
		<edge from-layer="4152" from-port="1" to-layer="4153" to-port="0"/>
		<edge from-layer="4147" from-port="2" to-layer="4154" to-port="0"/>
		<edge from-layer="4153" from-port="1" to-layer="4154" to-port="1"/>
		<edge from-layer="4154" from-port="2" to-layer="4155" to-port="0"/>
		<edge from-layer="4136" from-port="4" to-layer="4155" to-port="1"/>
		<edge from-layer="4138" from-port="2" to-layer="4156" to-port="0"/>
		<edge from-layer="4155" from-port="2" to-layer="4156" to-port="1"/>
		<edge from-layer="4152" from-port="1" to-layer="4157" to-port="0"/>
		<edge from-layer="4154" from-port="2" to-layer="4158" to-port="0"/>
		<edge from-layer="4157" from-port="1" to-layer="4158" to-port="1"/>
		<edge from-layer="4158" from-port="2" to-layer="4160" to-port="0"/>
		<edge from-layer="4159" from-port="0" to-layer="4160" to-port="1"/>
		<edge from-layer="4156" from-port="2" to-layer="4161" to-port="0"/>
		<edge from-layer="4160" from-port="2" to-layer="4161" to-port="1"/>
		<edge from-layer="4161" from-port="2" to-layer="4163" to-port="0"/>
		<edge from-layer="4162" from-port="0" to-layer="4163" to-port="1"/>
		<edge from-layer="4161" from-port="2" to-layer="4165" to-port="0"/>
		<edge from-layer="4164" from-port="0" to-layer="4166" to-port="0"/>
		<edge from-layer="4165" from-port="1" to-layer="4166" to-port="1"/>
		<edge from-layer="4166" from-port="2" to-layer="4168" to-port="0"/>
		<edge from-layer="4167" from-port="0" to-layer="4168" to-port="1"/>
		<edge from-layer="4163" from-port="2" to-layer="4169" to-port="0"/>
		<edge from-layer="4168" from-port="2" to-layer="4169" to-port="1"/>
		<edge from-layer="4169" from-port="2" to-layer="4171" to-port="0"/>
		<edge from-layer="4170" from-port="0" to-layer="4171" to-port="1"/>
		<edge from-layer="4171" from-port="2" to-layer="4173" to-port="0"/>
		<edge from-layer="4172" from-port="0" to-layer="4173" to-port="1"/>
		<edge from-layer="2881" from-port="4" to-layer="4176" to-port="0"/>
		<edge from-layer="4174" from-port="0" to-layer="4176" to-port="1"/>
		<edge from-layer="4175" from-port="0" to-layer="4176" to-port="2"/>
		<edge from-layer="4176" from-port="3" to-layer="4177" to-port="0"/>
		<edge from-layer="4177" from-port="1" to-layer="4179" to-port="0"/>
		<edge from-layer="4178" from-port="0" to-layer="4179" to-port="1"/>
		<edge from-layer="4171" from-port="2" to-layer="4180" to-port="0"/>
		<edge from-layer="4179" from-port="2" to-layer="4181" to-port="0"/>
		<edge from-layer="4180" from-port="1" to-layer="4181" to-port="1"/>
		<edge from-layer="4181" from-port="2" to-layer="4183" to-port="0"/>
		<edge from-layer="4182" from-port="0" to-layer="4183" to-port="1"/>
		<edge from-layer="4173" from-port="2" to-layer="4184" to-port="0"/>
		<edge from-layer="4183" from-port="2" to-layer="4184" to-port="1"/>
		<edge from-layer="4184" from-port="2" to-layer="4186" to-port="0"/>
		<edge from-layer="4185" from-port="0" to-layer="4186" to-port="1"/>
		<edge from-layer="4186" from-port="2" to-layer="4188" to-port="0"/>
		<edge from-layer="4187" from-port="0" to-layer="4188" to-port="1"/>
		<edge from-layer="4076" from-port="3" to-layer="4191" to-port="0"/>
		<edge from-layer="4189" from-port="0" to-layer="4191" to-port="1"/>
		<edge from-layer="4190" from-port="0" to-layer="4191" to-port="2"/>
		<edge from-layer="4076" from-port="3" to-layer="4194" to-port="0"/>
		<edge from-layer="4192" from-port="0" to-layer="4194" to-port="1"/>
		<edge from-layer="4193" from-port="0" to-layer="4194" to-port="2"/>
		<edge from-layer="4191" from-port="3" to-layer="4195" to-port="0"/>
		<edge from-layer="4194" from-port="3" to-layer="4195" to-port="1"/>
		<edge from-layer="4195" from-port="2" to-layer="4197" to-port="0"/>
		<edge from-layer="4196" from-port="0" to-layer="4197" to-port="1"/>
		<edge from-layer="4197" from-port="2" to-layer="4199" to-port="0"/>
		<edge from-layer="4198" from-port="0" to-layer="4199" to-port="1"/>
		<edge from-layer="4132" from-port="2" to-layer="4203" to-port="0"/>
		<edge from-layer="4200" from-port="0" to-layer="4203" to-port="1"/>
		<edge from-layer="4201" from-port="0" to-layer="4203" to-port="2"/>
		<edge from-layer="4202" from-port="0" to-layer="4203" to-port="3"/>
		<edge from-layer="4203" from-port="4" to-layer="4204" to-port="0"/>
		<edge from-layer="4199" from-port="2" to-layer="4205" to-port="0"/>
		<edge from-layer="4204" from-port="1" to-layer="4205" to-port="1"/>
		<edge from-layer="4076" from-port="3" to-layer="4208" to-port="0"/>
		<edge from-layer="4206" from-port="0" to-layer="4208" to-port="1"/>
		<edge from-layer="4207" from-port="0" to-layer="4208" to-port="2"/>
		<edge from-layer="4076" from-port="3" to-layer="4211" to-port="0"/>
		<edge from-layer="4209" from-port="0" to-layer="4211" to-port="1"/>
		<edge from-layer="4210" from-port="0" to-layer="4211" to-port="2"/>
		<edge from-layer="4208" from-port="3" to-layer="4212" to-port="0"/>
		<edge from-layer="4211" from-port="3" to-layer="4212" to-port="1"/>
		<edge from-layer="4212" from-port="2" to-layer="4214" to-port="0"/>
		<edge from-layer="4213" from-port="0" to-layer="4214" to-port="1"/>
		<edge from-layer="4132" from-port="2" to-layer="4218" to-port="0"/>
		<edge from-layer="4215" from-port="0" to-layer="4218" to-port="1"/>
		<edge from-layer="4216" from-port="0" to-layer="4218" to-port="2"/>
		<edge from-layer="4217" from-port="0" to-layer="4218" to-port="3"/>
		<edge from-layer="4218" from-port="4" to-layer="4219" to-port="0"/>
		<edge from-layer="4219" from-port="1" to-layer="4220" to-port="0"/>
		<edge from-layer="4214" from-port="2" to-layer="4221" to-port="0"/>
		<edge from-layer="4220" from-port="1" to-layer="4221" to-port="1"/>
		<edge from-layer="4221" from-port="2" to-layer="4222" to-port="0"/>
		<edge from-layer="4203" from-port="4" to-layer="4222" to-port="1"/>
		<edge from-layer="4205" from-port="2" to-layer="4223" to-port="0"/>
		<edge from-layer="4222" from-port="2" to-layer="4223" to-port="1"/>
		<edge from-layer="4219" from-port="1" to-layer="4224" to-port="0"/>
		<edge from-layer="4221" from-port="2" to-layer="4225" to-port="0"/>
		<edge from-layer="4224" from-port="1" to-layer="4225" to-port="1"/>
		<edge from-layer="4225" from-port="2" to-layer="4227" to-port="0"/>
		<edge from-layer="4226" from-port="0" to-layer="4227" to-port="1"/>
		<edge from-layer="4223" from-port="2" to-layer="4228" to-port="0"/>
		<edge from-layer="4227" from-port="2" to-layer="4228" to-port="1"/>
		<edge from-layer="4228" from-port="2" to-layer="4230" to-port="0"/>
		<edge from-layer="4229" from-port="0" to-layer="4230" to-port="1"/>
		<edge from-layer="4228" from-port="2" to-layer="4232" to-port="0"/>
		<edge from-layer="4231" from-port="0" to-layer="4233" to-port="0"/>
		<edge from-layer="4232" from-port="1" to-layer="4233" to-port="1"/>
		<edge from-layer="4233" from-port="2" to-layer="4235" to-port="0"/>
		<edge from-layer="4234" from-port="0" to-layer="4235" to-port="1"/>
		<edge from-layer="4230" from-port="2" to-layer="4236" to-port="0"/>
		<edge from-layer="4235" from-port="2" to-layer="4236" to-port="1"/>
		<edge from-layer="4236" from-port="2" to-layer="4238" to-port="0"/>
		<edge from-layer="4237" from-port="0" to-layer="4238" to-port="1"/>
		<edge from-layer="4238" from-port="2" to-layer="4240" to-port="0"/>
		<edge from-layer="4239" from-port="0" to-layer="4240" to-port="1"/>
		<edge from-layer="2881" from-port="4" to-layer="4243" to-port="0"/>
		<edge from-layer="4241" from-port="0" to-layer="4243" to-port="1"/>
		<edge from-layer="4242" from-port="0" to-layer="4243" to-port="2"/>
		<edge from-layer="4243" from-port="3" to-layer="4244" to-port="0"/>
		<edge from-layer="4244" from-port="1" to-layer="4246" to-port="0"/>
		<edge from-layer="4245" from-port="0" to-layer="4246" to-port="1"/>
		<edge from-layer="4238" from-port="2" to-layer="4247" to-port="0"/>
		<edge from-layer="4246" from-port="2" to-layer="4248" to-port="0"/>
		<edge from-layer="4247" from-port="1" to-layer="4248" to-port="1"/>
		<edge from-layer="4248" from-port="2" to-layer="4250" to-port="0"/>
		<edge from-layer="4249" from-port="0" to-layer="4250" to-port="1"/>
		<edge from-layer="4240" from-port="2" to-layer="4251" to-port="0"/>
		<edge from-layer="4250" from-port="2" to-layer="4251" to-port="1"/>
		<edge from-layer="4251" from-port="2" to-layer="4253" to-port="0"/>
		<edge from-layer="4252" from-port="0" to-layer="4253" to-port="1"/>
		<edge from-layer="4253" from-port="2" to-layer="4255" to-port="0"/>
		<edge from-layer="4254" from-port="0" to-layer="4255" to-port="1"/>
		<edge from-layer="4158" from-port="2" to-layer="4257" to-port="0"/>
		<edge from-layer="4256" from-port="0" to-layer="4257" to-port="1"/>
		<edge from-layer="4156" from-port="2" to-layer="4258" to-port="0"/>
		<edge from-layer="4257" from-port="2" to-layer="4258" to-port="1"/>
		<edge from-layer="4258" from-port="2" to-layer="4260" to-port="0"/>
		<edge from-layer="4259" from-port="0" to-layer="4260" to-port="1"/>
		<edge from-layer="4258" from-port="2" to-layer="4262" to-port="0"/>
		<edge from-layer="4261" from-port="0" to-layer="4263" to-port="0"/>
		<edge from-layer="4262" from-port="1" to-layer="4263" to-port="1"/>
		<edge from-layer="4263" from-port="2" to-layer="4265" to-port="0"/>
		<edge from-layer="4264" from-port="0" to-layer="4265" to-port="1"/>
		<edge from-layer="4260" from-port="2" to-layer="4266" to-port="0"/>
		<edge from-layer="4265" from-port="2" to-layer="4266" to-port="1"/>
		<edge from-layer="4266" from-port="2" to-layer="4268" to-port="0"/>
		<edge from-layer="4267" from-port="0" to-layer="4268" to-port="1"/>
		<edge from-layer="4268" from-port="2" to-layer="4270" to-port="0"/>
		<edge from-layer="4269" from-port="0" to-layer="4270" to-port="1"/>
		<edge from-layer="2881" from-port="4" to-layer="4273" to-port="0"/>
		<edge from-layer="4271" from-port="0" to-layer="4273" to-port="1"/>
		<edge from-layer="4272" from-port="0" to-layer="4273" to-port="2"/>
		<edge from-layer="4273" from-port="3" to-layer="4274" to-port="0"/>
		<edge from-layer="4274" from-port="1" to-layer="4276" to-port="0"/>
		<edge from-layer="4275" from-port="0" to-layer="4276" to-port="1"/>
		<edge from-layer="4268" from-port="2" to-layer="4277" to-port="0"/>
		<edge from-layer="4276" from-port="2" to-layer="4278" to-port="0"/>
		<edge from-layer="4277" from-port="1" to-layer="4278" to-port="1"/>
		<edge from-layer="4278" from-port="2" to-layer="4280" to-port="0"/>
		<edge from-layer="4279" from-port="0" to-layer="4280" to-port="1"/>
		<edge from-layer="4270" from-port="2" to-layer="4281" to-port="0"/>
		<edge from-layer="4280" from-port="2" to-layer="4281" to-port="1"/>
		<edge from-layer="4281" from-port="2" to-layer="4283" to-port="0"/>
		<edge from-layer="4282" from-port="0" to-layer="4283" to-port="1"/>
		<edge from-layer="4283" from-port="2" to-layer="4285" to-port="0"/>
		<edge from-layer="4284" from-port="0" to-layer="4285" to-port="1"/>
		<edge from-layer="4225" from-port="2" to-layer="4287" to-port="0"/>
		<edge from-layer="4286" from-port="0" to-layer="4287" to-port="1"/>
		<edge from-layer="4223" from-port="2" to-layer="4288" to-port="0"/>
		<edge from-layer="4287" from-port="2" to-layer="4288" to-port="1"/>
		<edge from-layer="4288" from-port="2" to-layer="4290" to-port="0"/>
		<edge from-layer="4289" from-port="0" to-layer="4290" to-port="1"/>
		<edge from-layer="4288" from-port="2" to-layer="4292" to-port="0"/>
		<edge from-layer="4291" from-port="0" to-layer="4293" to-port="0"/>
		<edge from-layer="4292" from-port="1" to-layer="4293" to-port="1"/>
		<edge from-layer="4293" from-port="2" to-layer="4295" to-port="0"/>
		<edge from-layer="4294" from-port="0" to-layer="4295" to-port="1"/>
		<edge from-layer="4290" from-port="2" to-layer="4296" to-port="0"/>
		<edge from-layer="4295" from-port="2" to-layer="4296" to-port="1"/>
		<edge from-layer="4296" from-port="2" to-layer="4298" to-port="0"/>
		<edge from-layer="4297" from-port="0" to-layer="4298" to-port="1"/>
		<edge from-layer="4298" from-port="2" to-layer="4300" to-port="0"/>
		<edge from-layer="4299" from-port="0" to-layer="4300" to-port="1"/>
		<edge from-layer="2881" from-port="4" to-layer="4303" to-port="0"/>
		<edge from-layer="4301" from-port="0" to-layer="4303" to-port="1"/>
		<edge from-layer="4302" from-port="0" to-layer="4303" to-port="2"/>
		<edge from-layer="4303" from-port="3" to-layer="4304" to-port="0"/>
		<edge from-layer="4304" from-port="1" to-layer="4306" to-port="0"/>
		<edge from-layer="4305" from-port="0" to-layer="4306" to-port="1"/>
		<edge from-layer="4298" from-port="2" to-layer="4307" to-port="0"/>
		<edge from-layer="4306" from-port="2" to-layer="4308" to-port="0"/>
		<edge from-layer="4307" from-port="1" to-layer="4308" to-port="1"/>
		<edge from-layer="4308" from-port="2" to-layer="4310" to-port="0"/>
		<edge from-layer="4309" from-port="0" to-layer="4310" to-port="1"/>
		<edge from-layer="4300" from-port="2" to-layer="4311" to-port="0"/>
		<edge from-layer="4310" from-port="2" to-layer="4311" to-port="1"/>
		<edge from-layer="4311" from-port="2" to-layer="4313" to-port="0"/>
		<edge from-layer="4312" from-port="0" to-layer="4313" to-port="1"/>
		<edge from-layer="4313" from-port="2" to-layer="4315" to-port="0"/>
		<edge from-layer="4314" from-port="0" to-layer="4315" to-port="1"/>
		<edge from-layer="4188" from-port="2" to-layer="4316" to-port="0"/>
		<edge from-layer="4255" from-port="2" to-layer="4316" to-port="1"/>
		<edge from-layer="4285" from-port="2" to-layer="4316" to-port="2"/>
		<edge from-layer="4315" from-port="2" to-layer="4316" to-port="3"/>
		<edge from-layer="4106" from-port="3" to-layer="4317" to-port="0"/>
		<edge from-layer="4316" from-port="4" to-layer="4318" to-port="0"/>
		<edge from-layer="4317" from-port="1" to-layer="4318" to-port="1"/>
		<edge from-layer="3026" from-port="2" to-layer="4319" to-port="0"/>
		<edge from-layer="3349" from-port="2" to-layer="4319" to-port="1"/>
		<edge from-layer="3672" from-port="2" to-layer="4319" to-port="2"/>
		<edge from-layer="3995" from-port="2" to-layer="4319" to-port="3"/>
		<edge from-layer="4318" from-port="2" to-layer="4319" to-port="4"/>
		<edge from-layer="4319" from-port="5" to-layer="4321" to-port="0"/>
		<edge from-layer="4320" from-port="0" to-layer="4321" to-port="1"/>
		<edge from-layer="2776" from-port="1" to-layer="4322" to-port="0"/>
		<edge from-layer="1177" from-port="1" to-layer="4324" to-port="0"/>
		<edge from-layer="4322" from-port="1" to-layer="4324" to-port="1"/>
		<edge from-layer="4323" from-port="0" to-layer="4324" to-port="2"/>
		<edge from-layer="3104" from-port="1" to-layer="4325" to-port="0"/>
		<edge from-layer="1513" from-port="1" to-layer="4327" to-port="0"/>
		<edge from-layer="4325" from-port="1" to-layer="4327" to-port="1"/>
		<edge from-layer="4326" from-port="0" to-layer="4327" to-port="2"/>
		<edge from-layer="3427" from-port="1" to-layer="4328" to-port="0"/>
		<edge from-layer="1849" from-port="1" to-layer="4330" to-port="0"/>
		<edge from-layer="4328" from-port="1" to-layer="4330" to-port="1"/>
		<edge from-layer="4329" from-port="0" to-layer="4330" to-port="2"/>
		<edge from-layer="3750" from-port="1" to-layer="4331" to-port="0"/>
		<edge from-layer="2185" from-port="1" to-layer="4333" to-port="0"/>
		<edge from-layer="4331" from-port="1" to-layer="4333" to-port="1"/>
		<edge from-layer="4332" from-port="0" to-layer="4333" to-port="2"/>
		<edge from-layer="4073" from-port="1" to-layer="4334" to-port="0"/>
		<edge from-layer="2521" from-port="1" to-layer="4336" to-port="0"/>
		<edge from-layer="4334" from-port="1" to-layer="4336" to-port="1"/>
		<edge from-layer="4335" from-port="0" to-layer="4336" to-port="2"/>
		<edge from-layer="4324" from-port="3" to-layer="4337" to-port="0"/>
		<edge from-layer="4327" from-port="3" to-layer="4337" to-port="1"/>
		<edge from-layer="4330" from-port="3" to-layer="4337" to-port="2"/>
		<edge from-layer="4333" from-port="3" to-layer="4337" to-port="3"/>
		<edge from-layer="4336" from-port="3" to-layer="4337" to-port="4"/>
		<edge from-layer="2776" from-port="1" to-layer="4338" to-port="0"/>
		<edge from-layer="1322" from-port="1" to-layer="4340" to-port="0"/>
		<edge from-layer="4338" from-port="1" to-layer="4340" to-port="1"/>
		<edge from-layer="4339" from-port="0" to-layer="4340" to-port="2"/>
		<edge from-layer="3104" from-port="1" to-layer="4341" to-port="0"/>
		<edge from-layer="1658" from-port="1" to-layer="4343" to-port="0"/>
		<edge from-layer="4341" from-port="1" to-layer="4343" to-port="1"/>
		<edge from-layer="4342" from-port="0" to-layer="4343" to-port="2"/>
		<edge from-layer="3427" from-port="1" to-layer="4344" to-port="0"/>
		<edge from-layer="1994" from-port="1" to-layer="4346" to-port="0"/>
		<edge from-layer="4344" from-port="1" to-layer="4346" to-port="1"/>
		<edge from-layer="4345" from-port="0" to-layer="4346" to-port="2"/>
		<edge from-layer="3750" from-port="1" to-layer="4347" to-port="0"/>
		<edge from-layer="2330" from-port="1" to-layer="4349" to-port="0"/>
		<edge from-layer="4347" from-port="1" to-layer="4349" to-port="1"/>
		<edge from-layer="4348" from-port="0" to-layer="4349" to-port="2"/>
		<edge from-layer="4073" from-port="1" to-layer="4350" to-port="0"/>
		<edge from-layer="2666" from-port="1" to-layer="4352" to-port="0"/>
		<edge from-layer="4350" from-port="1" to-layer="4352" to-port="1"/>
		<edge from-layer="4351" from-port="0" to-layer="4352" to-port="2"/>
		<edge from-layer="4340" from-port="3" to-layer="4353" to-port="0"/>
		<edge from-layer="4343" from-port="3" to-layer="4353" to-port="1"/>
		<edge from-layer="4346" from-port="3" to-layer="4353" to-port="2"/>
		<edge from-layer="4349" from-port="3" to-layer="4353" to-port="3"/>
		<edge from-layer="4352" from-port="3" to-layer="4353" to-port="4"/>
		<edge from-layer="4353" from-port="5" to-layer="4354" to-port="0"/>
		<edge from-layer="4354" from-port="1" to-layer="4357" to-port="0"/>
		<edge from-layer="4355" from-port="0" to-layer="4357" to-port="1"/>
		<edge from-layer="4356" from-port="0" to-layer="4357" to-port="2"/>
		<edge from-layer="4357" from-port="3" to-layer="4359" to-port="0"/>
		<edge from-layer="4358" from-port="0" to-layer="4359" to-port="1"/>
		<edge from-layer="4359" from-port="2" to-layer="4361" to-port="0"/>
		<edge from-layer="4360" from-port="0" to-layer="4361" to-port="1"/>
		<edge from-layer="4353" from-port="5" to-layer="4362" to-port="0"/>
		<edge from-layer="4361" from-port="2" to-layer="4362" to-port="1"/>
		<edge from-layer="4337" from-port="5" to-layer="4363" to-port="0"/>
		<edge from-layer="4362" from-port="2" to-layer="4364" to-port="0"/>
		<edge from-layer="4363" from-port="1" to-layer="4364" to-port="1"/>
		<edge from-layer="4337" from-port="5" to-layer="4365" to-port="0"/>
		<edge from-layer="4364" from-port="2" to-layer="4365" to-port="1"/>
		<edge from-layer="4365" from-port="2" to-layer="4366" to-port="0"/>
		<edge from-layer="4366" from-port="1" to-layer="4369" to-port="0"/>
		<edge from-layer="4367" from-port="0" to-layer="4369" to-port="1"/>
		<edge from-layer="4368" from-port="0" to-layer="4369" to-port="2"/>
		<edge from-layer="4369" from-port="3" to-layer="4371" to-port="0"/>
		<edge from-layer="4370" from-port="0" to-layer="4371" to-port="1"/>
		<edge from-layer="4365" from-port="2" to-layer="4372" to-port="0"/>
		<edge from-layer="4372" from-port="1" to-layer="4375" to-port="0"/>
		<edge from-layer="4373" from-port="0" to-layer="4375" to-port="1"/>
		<edge from-layer="4374" from-port="0" to-layer="4375" to-port="2"/>
		<edge from-layer="4375" from-port="3" to-layer="4377" to-port="0"/>
		<edge from-layer="4376" from-port="0" to-layer="4377" to-port="1"/>
		<edge from-layer="4371" from-port="2" to-layer="4379" to-port="0"/>
		<edge from-layer="4377" from-port="2" to-layer="4379" to-port="1"/>
		<edge from-layer="4378" from-port="0" to-layer="4379" to-port="2"/>
		<edge from-layer="4379" from-port="3" to-layer="4381" to-port="0"/>
		<edge from-layer="4380" from-port="0" to-layer="4381" to-port="1"/>
		<edge from-layer="4381" from-port="2" to-layer="4383" to-port="0"/>
		<edge from-layer="4382" from-port="0" to-layer="4384" to-port="0"/>
		<edge from-layer="4383" from-port="1" to-layer="4384" to-port="1"/>
		<edge from-layer="4384" from-port="2" to-layer="4385" to-port="0"/>
		<edge from-layer="4381" from-port="2" to-layer="4386" to-port="0"/>
		<edge from-layer="4385" from-port="1" to-layer="4386" to-port="1"/>
		<edge from-layer="4386" from-port="2" to-layer="4387" to-port="0"/>
		<edge from-layer="4384" from-port="2" to-layer="4387" to-port="1"/>
		<edge from-layer="4381" from-port="2" to-layer="4387" to-port="2"/>
		<edge from-layer="4321" from-port="2" to-layer="4388" to-port="0"/>
		<edge from-layer="4387" from-port="3" to-layer="4388" to-port="1"/>
		<edge from-layer="4388" from-port="2" to-layer="4390" to-port="0"/>
		<edge from-layer="4389" from-port="0" to-layer="4390" to-port="1"/>
		<edge from-layer="4375" from-port="3" to-layer="4393" to-port="0"/>
		<edge from-layer="4392" from-port="0" to-layer="4393" to-port="1"/>
		<edge from-layer="4391" from-port="0" to-layer="4394" to-port="0"/>
		<edge from-layer="4393" from-port="2" to-layer="4394" to-port="1"/>
		<edge from-layer="4394" from-port="2" to-layer="4395" to-port="0"/>
		<edge from-layer="4395" from-port="1" to-layer="4397" to-port="0"/>
		<edge from-layer="4396" from-port="0" to-layer="4397" to-port="1"/>
		<edge from-layer="4397" from-port="2" to-layer="4399" to-port="0"/>
		<edge from-layer="4398" from-port="0" to-layer="4399" to-port="1"/>
		<edge from-layer="4399" from-port="2" to-layer="4401" to-port="0"/>
		<edge from-layer="4400" from-port="0" to-layer="4401" to-port="1"/>
		<edge from-layer="4365" from-port="2" to-layer="4402" to-port="0"/>
		<edge from-layer="4401" from-port="2" to-layer="4403" to-port="0"/>
		<edge from-layer="4402" from-port="1" to-layer="4403" to-port="1"/>
		<edge from-layer="4403" from-port="2" to-layer="4405" to-port="0"/>
		<edge from-layer="4404" from-port="0" to-layer="4405" to-port="1"/>
		<edge from-layer="4405" from-port="2" to-layer="4406" to-port="0"/>
		<edge from-layer="4390" from-port="2" to-layer="4408" to-port="0"/>
		<edge from-layer="4408" from-port="1" to-layer="4409" to-port="0"/>
		<edge from-layer="4409" from-port="1" to-layer="4411" to-port="0"/>
		<edge from-layer="4410" from-port="0" to-layer="4411" to-port="1"/>
		<edge from-layer="4407" from-port="0" to-layer="4413" to-port="0"/>
		<edge from-layer="4411" from-port="2" to-layer="4413" to-port="1"/>
		<edge from-layer="4412" from-port="0" to-layer="4413" to-port="2"/>
		<edge from-layer="4390" from-port="2" to-layer="4414" to-port="0"/>
		<edge from-layer="4413" from-port="3" to-layer="4414" to-port="1"/>
		<edge from-layer="4414" from-port="2" to-layer="4416" to-port="0"/>
		<edge from-layer="4415" from-port="0" to-layer="4416" to-port="1"/>
		<edge from-layer="4416" from-port="2" to-layer="4418" to-port="0"/>
		<edge from-layer="4417" from-port="0" to-layer="4418" to-port="1"/>
		<edge from-layer="4406" from-port="1" to-layer="4419" to-port="0"/>
		<edge from-layer="4418" from-port="2" to-layer="4419" to-port="1"/>
		<edge from-layer="4419" from-port="2" to-layer="4421" to-port="0"/>
		<edge from-layer="4420" from-port="0" to-layer="4421" to-port="1"/>
		<edge from-layer="4390" from-port="2" to-layer="4422" to-port="0"/>
		<edge from-layer="4421" from-port="2" to-layer="4422" to-port="1"/>
		<edge from-layer="4365" from-port="2" to-layer="4424" to-port="0"/>
		<edge from-layer="4423" from-port="0" to-layer="4424" to-port="1"/>
		<edge from-layer="4424" from-port="2" to-layer="4426" to-port="0"/>
		<edge from-layer="4425" from-port="0" to-layer="4426" to-port="1"/>
		<edge from-layer="4422" from-port="2" to-layer="4427" to-port="0"/>
		<edge from-layer="4426" from-port="2" to-layer="4427" to-port="1"/>
		<edge from-layer="4427" from-port="2" to-layer="4430" to-port="0"/>
		<edge from-layer="4428" from-port="0" to-layer="4430" to-port="1"/>
		<edge from-layer="4429" from-port="0" to-layer="4430" to-port="2"/>
		<edge from-layer="4430" from-port="4" to-layer="4432" to-port="0"/>
		<edge from-layer="4431" from-port="0" to-layer="4432" to-port="1"/>
		<edge from-layer="4432" from-port="2" to-layer="4434" to-port="0"/>
		<edge from-layer="4433" from-port="0" to-layer="4434" to-port="1"/>
		<edge from-layer="4430" from-port="3" to-layer="4436" to-port="0"/>
		<edge from-layer="4435" from-port="0" to-layer="4436" to-port="1"/>
		<edge from-layer="4436" from-port="2" to-layer="4440" to-port="0"/>
		<edge from-layer="4432" from-port="2" to-layer="4440" to-port="1"/>
		<edge from-layer="4437" from-port="0" to-layer="4440" to-port="2"/>
		<edge from-layer="4438" from-port="0" to-layer="4440" to-port="3"/>
		<edge from-layer="4439" from-port="0" to-layer="4440" to-port="4"/>
		<edge from-layer="4440" from-port="5" to-layer="4444" to-port="0"/>
		<edge from-layer="4441" from-port="0" to-layer="4444" to-port="1"/>
		<edge from-layer="4442" from-port="0" to-layer="4444" to-port="2"/>
		<edge from-layer="4443" from-port="0" to-layer="4444" to-port="3"/>
		<edge from-layer="4444" from-port="4" to-layer="4446" to-port="0"/>
		<edge from-layer="4445" from-port="0" to-layer="4446" to-port="1"/>
		<edge from-layer="4446" from-port="2" to-layer="4447" to-port="0"/>
		<edge from-layer="4434" from-port="2" to-layer="4449" to-port="0"/>
		<edge from-layer="4447" from-port="1" to-layer="4449" to-port="1"/>
		<edge from-layer="4448" from-port="0" to-layer="4449" to-port="2"/>
		<edge from-layer="4449" from-port="3" to-layer="4450" to-port="0"/>
		<edge from-layer="4450" from-port="1" to-layer="4453" to-port="0"/>
		<edge from-layer="4451" from-port="0" to-layer="4453" to-port="1"/>
		<edge from-layer="4452" from-port="0" to-layer="4453" to-port="2"/>
		<edge from-layer="4453" from-port="3" to-layer="4455" to-port="0"/>
		<edge from-layer="4454" from-port="0" to-layer="4455" to-port="1"/>
		<edge from-layer="4455" from-port="2" to-layer="4457" to-port="0"/>
		<edge from-layer="4456" from-port="0" to-layer="4457" to-port="1"/>
		<edge from-layer="4457" from-port="2" to-layer="4458" to-port="0"/>
		<edge from-layer="4449" from-port="3" to-layer="4459" to-port="0"/>
		<edge from-layer="4458" from-port="1" to-layer="4459" to-port="1"/>
		<edge from-layer="4459" from-port="2" to-layer="4460" to-port="0"/>
		<edge from-layer="4446" from-port="2" to-layer="4462" to-port="0"/>
		<edge from-layer="4459" from-port="3" to-layer="4462" to-port="1"/>
		<edge from-layer="4461" from-port="0" to-layer="4462" to-port="2"/>
		<edge from-layer="4462" from-port="3" to-layer="4463" to-port="0"/>
		<edge from-layer="4390" from-port="2" to-layer="4465" to-port="0"/>
		<edge from-layer="4463" from-port="1" to-layer="4465" to-port="1"/>
		<edge from-layer="4464" from-port="0" to-layer="4465" to-port="2"/>
		<edge from-layer="4462" from-port="3" to-layer="4466" to-port="0"/>
		<edge from-layer="4427" from-port="2" to-layer="4468" to-port="0"/>
		<edge from-layer="4466" from-port="1" to-layer="4468" to-port="1"/>
		<edge from-layer="4467" from-port="0" to-layer="4468" to-port="2"/>
		<edge from-layer="4468" from-port="3" to-layer="4472" to-port="0"/>
		<edge from-layer="4469" from-port="0" to-layer="4472" to-port="1"/>
		<edge from-layer="4470" from-port="0" to-layer="4472" to-port="2"/>
		<edge from-layer="4471" from-port="0" to-layer="4472" to-port="3"/>
		<edge from-layer="4472" from-port="4" to-layer="4474" to-port="0"/>
		<edge from-layer="4473" from-port="0" to-layer="4474" to-port="1"/>
		<edge from-layer="4474" from-port="2" to-layer="4476" to-port="0"/>
		<edge from-layer="4475" from-port="0" to-layer="4476" to-port="1"/>
		<edge from-layer="4465" from-port="3" to-layer="4477" to-port="0"/>
		<edge from-layer="4476" from-port="2" to-layer="4477" to-port="1"/>
		<edge from-layer="4462" from-port="3" to-layer="4478" to-port="0"/>
		<edge from-layer="4405" from-port="2" to-layer="4480" to-port="0"/>
		<edge from-layer="4478" from-port="1" to-layer="4480" to-port="1"/>
		<edge from-layer="4479" from-port="0" to-layer="4480" to-port="2"/>
		<edge from-layer="4480" from-port="3" to-layer="4481" to-port="0"/>
		<edge from-layer="4481" from-port="1" to-layer="4483" to-port="0"/>
		<edge from-layer="4482" from-port="0" to-layer="4483" to-port="1"/>
		<edge from-layer="4477" from-port="2" to-layer="4484" to-port="0"/>
		<edge from-layer="4483" from-port="2" to-layer="4484" to-port="1"/>
		<edge from-layer="4484" from-port="2" to-layer="4488" to-port="0"/>
		<edge from-layer="4485" from-port="0" to-layer="4488" to-port="1"/>
		<edge from-layer="4486" from-port="0" to-layer="4488" to-port="2"/>
		<edge from-layer="4487" from-port="0" to-layer="4488" to-port="3"/>
		<edge from-layer="4488" from-port="4" to-layer="4489" to-port="0"/>
		<edge from-layer="4484" from-port="2" to-layer="4492" to-port="0"/>
		<edge from-layer="4490" from-port="0" to-layer="4492" to-port="1"/>
		<edge from-layer="4491" from-port="0" to-layer="4492" to-port="2"/>
		<edge from-layer="4492" from-port="3" to-layer="4493" to-port="0"/>
		<edge from-layer="4493" from-port="1" to-layer="4495" to-port="0"/>
		<edge from-layer="4494" from-port="0" to-layer="4495" to-port="1"/>
		<edge from-layer="4495" from-port="2" to-layer="4496" to-port="0"/>
	</edges>
	<meta_data>
		<MO_version value="unknown version"/>
		<cli_parameters>
			<caffe_parser_path value="DIR"/>
			<data_type value="FP16"/>
			<disable_nhwc_to_nchw value="False"/>
			<disable_omitting_optional value="False"/>
			<disable_resnet_optimization value="False"/>
			<disable_weights_compression value="False"/>
			<enable_concat_optimization value="False"/>
			<enable_flattening_nested_params value="False"/>
			<enable_ssd_gluoncv value="False"/>
			<extensions value="DIR"/>
			<framework value="onnx"/>
			<freeze_placeholder_with_value value="{}"/>
			<generate_deprecated_IR_V7 value="False"/>
			<input value="image"/>
			<input_model value="DIR/model.onnx"/>
			<input_model_is_text value="False"/>
			<input_shape value="[1,3,256,448]"/>
			<k value="DIR/CustomLayersMapping.xml"/>
			<keep_shape_ops value="True"/>
			<legacy_mxnet_model value="False"/>
			<log_level value="ERROR"/>
			<mean_scale_values value="{'image': {'mean': None, 'scale': array([255.])}}"/>
			<mean_values value="()"/>
			<model_name value="person-vehicle-bike-detection-2004"/>
			<output value="['boxes', 'labels']"/>
			<output_dir value="DIR"/>
			<placeholder_data_types value="{}"/>
			<placeholder_shapes value="{'image': array([  1,   3, 256, 448])}"/>
			<progress value="False"/>
			<remove_memory value="False"/>
			<remove_output_softmax value="False"/>
			<reverse_input_channels value="True"/>
			<save_params_from_nd value="False"/>
			<scale_values value="image[255.0]"/>
			<silent value="False"/>
			<static_shape value="False"/>
			<stream_output value="False"/>
			<unset unset_cli_parameters="batch, counts, disable_fusing, disable_gfusing, finegrain_fusing, input_checkpoint, input_meta_graph, input_proto, input_symbol, mean_file, mean_file_offsets, move_to_preprocess, nd_prefix_name, pretrained_model_name, saved_model_dir, saved_model_tags, scale, tensorboard_logdir, tensorflow_custom_layer_libraries, tensorflow_custom_operations_config_update, tensorflow_object_detection_api_pipeline_config, tensorflow_use_custom_operations_config, transformations_config"/>
		</cli_parameters>
	</meta_data>
	<quantization_parameters>
		<config>{
		'compression': {
			'algorithms': [
				{
					'name': 'DefaultQuantization',
					'params': {
						'num_samples_for_tuning': 2000,
						'preset': 'performance',
						'stat_subset_size': 300,
						'use_layerwise_tuning': false
					}
				}
			],
			'dump_intermediate_model': true,
			'target_device': 'ANY'
		},
		'engine': {
			'models': [
				{
					'name': 'person-vehicle-bike-detection-2004',
					'launchers': [
						{
							'framework': 'dlsdk',
							'adapter': {
								'type': 'faster_rcnn_onnx',
								'labels_out': 'labels',
								'boxes_out': 'boxes'
							},
							'device': 'CPU'
						}
					],
					'datasets': [
						{
							'name': 'crossroad_extra_untagged',
							'data_source': 'PATH',
							'annotation_conversion': {
								'converter': 'mscoco_detection',
								'annotation_file': 'PATH',
								'has_background': false,
								'sort_annotations': true,
								'use_full_label_map': false
							},
							'annotation': 'crossroad_extra_untagged.pickle',
							'dataset_meta': 'crossroad_extra_untagged.json',
							'preprocessing': [
								{
									'type': 'resize',
									'dst_width': 448,
									'dst_height': 256
								}
							],
							'postprocessing': [
								{
									'type': 'filter',
									'apply_to': 'prediction',
									'min_confidence': 0.05
								}
							],
							'metrics': [
								{
									'type': 'coco_orig_precision',
									'include_boundaries': false
								}
							],
							'_command_line_mapping': {
								'annotation_file': 'PATH'
							}
						}
					]
				}
			],
			'stat_requests_number': null,
			'eval_requests_number': null,
			'type': 'accuracy_checker'
		}
	}</config>
		<version value="1.0"/>
		<cli_params value="{'evaluate': False, 'output_dir': 'PATH', 'direct_dump': True, 'log_level': 'INFO', 'pbar': False, 'stream_output': False, 'keep_uncompressed_weights': False}"/>
	</quantization_parameters>
</net>
